best_LSTM_model.pth (torch, 205736 bytes, 9 tensors)

lstm.weight_ih_l0 f4 [256, 1]
00000000: 50d4 223e 8a8e eb3e c421 8dbc b933 cc3e
00000010: ff12 58be 9030 6cbe a6e0 983e 8a20 773e
00000020: be0b 843e abf8 11be a7f8 9d3e a86f 71be
00000030: 7627 a93d 666c 913e dc4f e93e 0acb b43e
00000040: 0ec4 acbc 3d70 e6be fba7 633c d3ff b03e
00000050: 2a6a 363e 6b8d 8d3e 4d62 7a3e bf9a 91bd
00000060: 2bc8 b1be 813b b0be 74d6 453e 3d8d cebd
00000070: 830b 83be b78d a93e 4f92 c03e cc5d 02bf
00000080: 422f 3abe 008e aa3e a2bf 5abd 119a dfbd
00000090: e235 c73e 2a6b 8d3e 3c3e 50bb 210d 9b3e
000000a0: 70df a5bd 1158 dc3e e94c 653d 3967 413f
000000b0: 98e1 bc3e 0030 8c3e 5230 193e 85b5 b93e
000000c0: b34a bf3d e537 bebe 53e6 d73b b2a5 23be
000000d0: b04a 173e ab86 c53e 0e2a 9f3e 28ef 2e3f
000000e0: 41e3 c63e b72d ab3e 0830 2a3f 1e3d f8be
000000f0: f57c 4fbe 49b5 76be 5c88 ad3d aba1 143f
00000100: 4869 1bbb 38c2 df3d 919e a5bd 4385 12bd
00000110: f183 a1be cb40 29bf 9071 dc3d 326a a6be
00000120: 8628 573e 468c a2bd 4949 4d3d 184d a3be
00000130: 302c 0b3d 05f6 793e e50e 20bd 9e57 c03e
00000140: 263a 89be 105f febe a560 253d 6ab3 1a3e
00000150: 8def 303e ab22 df3d d817 f33e cba9 7dbe
00000160: 09c8 64be 4d91 763d 8c0e fd3d 4d21 763e
00000170: 76e1 b7bd 75b8 843e b9bf 0ebf 4d16 05be
00000180: d158 cf3b 0636 523e 04fe 0ebe 82d2 1abf
00000190: eb20 ecbd f767 a7be 907d 753f 5200 af3d
000001a0: 39d6 02be a674 1a3e 46c3 f3bd 3287 083e
000001b0: 55be b1be 8b14 733e 6987 cc3e 6461 b83e
000001c0: 4c19 0d3d 0e0b 1dbd 86df 993e 775f 79be
000001d0: dfce 55be e1fb e03d 97ae 653e 7ffa 843d
000001e0: 218a 5f3e dc8f 8a3d edfc 483f 0caa 85be
000001f0: 9ed5 a2be d376 5f3e a480 c13d 7243 3a3e
00000200: fdc8 043f 955a c73e 8d09 213f 2031 1d3f
00000210: ed19 ebbe d361 133f 5a9c 2dbf 5fe6 edbe
00000220: 3821 1ebf 7fc8 e0be 8b70 91be 1314 063e
00000230: 8eef 28be 4797 19bf 3436 213f 31f4 03bf
00000240: 54d1 ad3e 1a75 c73e e2ae f43e f2c4 173f
00000250: 6826 103f d735 0fbf e61b d4be 267c f8be
00000260: 7ca4 c93e 18ea c1be c458 383f 47d4 15bc
00000270: c7c5 803e 73ca 183f 2823 a73e 8df4 a6be
00000280: e46b a33e 375b f1be f63a 033f 75d3 0abf
00000290: 444c 2a3f fdff 14bf 24dc ebbd ee1c 143f
000002a0: 253f 46be bdfd 23bf 5beb 09bf 5fbd 2d3f
000002b0: 7c52 1c3f 098e cd3e 7b38 3f3d fc2d e7be
000002c0: 57a6 0bbf 6351 6a3e 7e62 1dbe 8422 03bf
000002d0: 9501 2b3f c47c eb3e 2409 01bf c613 6fbf
000002e0: 9438 eb3e b083 1f3f ed15 163f 2316 19bd
000002f0: 5ba1 a03e 769d 163e d880 2dbf 20cc 5ebf
00000300: 1c61 413e 24d8 003f f30c a73d 9e3d cc3e
00000310: 0edc 18be 5428 7abe fe10 063f 96eb ae3e
00000320: 3210 273e 397e 0ebd 4fce ae3e 0cee 66be
00000330: e61b d1bd 34b1 6a3e e72d bb3e e548 eb3e
00000340: 5849 9fbe d8f4 b1be 60aa 803e 2025 ea3e
00000350: e851 513e 4fe8 a03e d4f9 8b3e bce0 093e
00000360: f758 f1be 0de9 a9be 133c d83e 6f4d ebbd
00000370: 59e8 b0be cf62 163f fff6 823e 026f 57be
00000380: 4570 14bf 61b7 da3e 5740 3b3e 6f17 94bd
00000390: dded c93e 0c8e 34bc 528d c13e 5f5c f93e
000003a0: 5ee2 4cbe 0db6 2a3f eaec 963d 5a9e 3e3f
000003b0: dc63 3f3e e7c0 ad3e bfb9 9cbd aac6 843e
000003c0: fc0a da3d 4534 c2be 9a05 ae3d 1bb3 1fbe
000003d0: 0f8f 113e bc0c 913e bbfd ac3e 61f0 353f
000003e0: 39be c03e 477c 043f 3277 ab3e b319 1cbf
000003f0: 8484 27be 2af2 3abe f50e 553e c953 053f
0.15901303 0.46007186 -0.017228015 0.3988321 -0.21100996 -0.230654 0.29858893 0.24133506
0.2579021 -0.14255016 0.3085377 -0.2357775 0.0825948 0.28403014 0.4556874 0.35311157
-0.02108958 -0.45007506 0.01389503 0.34570178 0.17813936 0.27646956 0.24451561 -0.071095936
-0.3472303 -0.34420398 0.19320089 -0.10085533 -0.2559472 0.33115932 0.37611625 -0.5092437
-0.1818209 0.33311462 -0.05340541 -0.10918058 0.38908297 0.27620822 -0.0031775376 0.30283454
-0.08099258 0.4303594 0.05598155 0.7554813 0.36890864 0.2738037 0.14959839 0.362713
0.093404196 -0.3715202 0.006588736 -0.15981176 0.14774585 0.38579306 0.31086773 0.68333673
0.38845256 0.33433315 0.6647954 -0.4848413 -0.20262511 -0.24092592 0.08473274 0.58059186
-0.0023713876 0.10925716 -0.08086885 -0.03577162 -0.31545976 -0.6611449 0.10763848 -0.32502896
0.21011552 -0.07936911 0.05011872 -0.31894755 0.033977687 0.24410255 -0.039076705 0.37566847
-0.26802176 -0.49681902 0.04037537 0.15107504 0.17278881 0.10895284 0.4747913 -0.24771802
-0.22341932 0.060197163 0.1235629 0.2403614 -0.0897855 0.2592198 -0.55761296 -0.12996788
0.0063277264 0.20528421 -0.13964087 -0.6047746 -0.11529716 -0.32696506 0.9589472 0.08544983
-0.12777032 0.1508356 -0.1190248 0.13332823 -0.34715524 0.23738305 0.3994706 0.36011803
0.034447953 -0.03834062 0.30053347 -0.24352823 -0.20879696 0.10985542 0.22429882 0.06493091
0.21830036 0.0676572 0.78510934 -0.26106298 -0.31803602 0.21822672 0.094483644 0.18189791
0.51869184 0.38936296 0.629052 0.61403084 -0.45918217 0.5757114 -0.678167 -0.46464822
-0.6176944 -0.43902966 -0.28406176 0.13093595 -0.16497633 -0.59996456 0.6297333 -0.5154448
0.33948767 0.3895653 0.47789675 0.5928489 0.56308603 -0.5594153 -0.41427535 -0.48532218
0.39383304 -0.37873912 0.72010446 -0.009144849 0.25150892 0.59683913 0.3264401 -0.32608452
0.31918252 -0.47139904 0.5126184 -0.5422891 0.6652262 -0.5820311 -0.11516598 0.57856643
-0.19360025 -0.6405905 -0.5387475 0.6786708 0.6106336 0.40147427 0.046684723 -0.4515227
-0.5455069 0.22882609 -0.15369603 -0.5122454 0.6679929 0.45993626 -0.5040457 -0.93389547
0.45941603 0.62310314 0.58627206 -0.037374627 0.31373104 0.14708504 -0.67774725 -0.8703022
0.188847 0.50329804 0.08156767 0.3989076 -0.14927694 -0.24429446 0.5236968 0.34164113
0.16314772 -0.034788344 0.34141776 -0.22551745 -0.10210399 0.2291916 0.36558458 0.45954052
-0.31110644 -0.34757113 0.25129986 0.4573145 0.20441401 0.31427237 0.2733904 0.13464636
-0.47138187 -0.33185616 0.42233333 -0.11489379 -0.34552267 0.5874452 0.25579068 -0.2103844
-0.5798381 0.42718032 0.18286262 -0.07231032 0.39439288 -0.011020195 0.3780313 0.48703286
-0.20008227 0.6668404 0.073694065 0.74460375 0.18690437 0.33936235 -0.07652616 0.2593282
0.10646626 -0.37930503 0.08497162 -0.15595667 0.14214729 0.28330028 0.3378733 0.71069914
0.37645128 0.5175213 0.33489376 -0.60976714 -0.16359144 -0.18256441 0.20806487 0.5208097

lstm.weight_hh_l0 f4 [256, 64]
00000000: 483a a43d b4f6 9abd d418 28bc a8d8 923d
00000010: e555 723d 9f3d bbbe dde7 423e bab0 2a3e
00000020: cae1 ba3c 2594 8abe 8510 303d ac6f e7bc
00000030: 0adc 093e b63d 8c3b 53b9 9c3d 9385 aebe
00000040: 237e 0ebe 25a0 5e3d 8b60 403e e3d2 b9bd
00000050: a509 99bc 27d9 d33c cb62 853e 9986 05bc
00000060: 7182 11be 85f5 c9be 32be e6bd 594a 85be
00000070: a8ae 91bc d704 efbd 9faa 1ebf 9fbe 8e3e
00000080: 4ece 2c3e 1088 b0bc 8d89 60be f976 ea3d
00000090: 20c2 c4bd 6cfb 2cbe 1dc2 5bbf bce8 f5bd
000000a0: 1767 1bbe 6be7 7fbd 4086 84bd e1ca 5fbe
000000b0: dba2 083d 6c4e 32be 916b 18be 89e4 463d
000000c0: 1a88 cfbd 9a77 7a3e f6f7 c13d 0e04 8ebb
000000d0: a4d9 ab3c 6784 753e ea58 cc3d 9988 1d3e
000000e0: 2e43 1dbe f4a0 c23d 648b 8bbd af95 6b3d
000000f0: 1554 17be cc74 31bd 1ef7 153e b180 f03d
00000100: ca58 04be 831a 1dbe a80c 343e 4690 e63d
00000110: 60be e3bd 799f 0c3d def6 81be f52f d7bd
00000120: 0f3b f6bd 3e10 18be 5a22 083e 4264 be3d
00000130: 18da ab3c e6c4 93bd ac0a a63d 47d9 ddbd
00000140: 6d18 11be fe1b a93d 801c c0bd 246f a6bd
00000150: 6ca8 43bd 368b 02ba 4529 fe3c 7a10 30be
00000160: cb32 13be 4ca0 b7bd f5c5 123e dc6b 11be
00000170: 41fc 4a3a 0672 20bd b79a 4cbd 6f4c b83d
00000180: b92a 1e3d 9b02 073e e0a8 993d d5b5 b7bb
00000190: c81a 043e f069 30be 958c 50be c35b 063e
000001a0: 430b 003c 7b9d 753c 6b50 9dbd 307f f5bd
000001b0: 3be6 c53d be4b 49bd 62bb e6bc cae1 e8bc
000001c0: 55ca 63bd bb06 bb3d acb4 213e 75e6 b23d
000001d0: 90df b8bd 06ef 68bd 48b7 72be dae7 ec3d
000001e0: 10cd 21bd bd8c 2bbc 77bb 4c3d ca67 81bd
000001f0: 78a5 993e 29bf e6bd 109e 8abe db77 5a3e
00000200: f53c 823d 39d6 b03e 6652 17be 1c9d a23d
00000210: 0922 c63d 6f00 1cbe fdaf 5cbe c477 a13e
00000220: 5d0c 93bd 9613 04bf 4a4b 4c3a 7114 2cbe
00000230: 644e 763e e56f e53d 18c6 003e 5832 acbe
00000240: d9fa 0bbf 6a92 003b 2db4 0d3e 32e7 8e3c
00000250: 2a81 f03d ca79 48be 99d0 aa3d 9f9e f9bc
00000260: 1420 e2be c2fb 08be d950 c8bc 500d 84be
00000270: 5bec 243e adba b73d 8e50 dabe bd83 aa3d
00000280: 7459 0a3e 2fa4 68bd a0bc d2bc c2a9 d23d
00000290: 3ae2 0d3e 5448 70be 80a6 c8bf a2cb 183e
000002a0: d412 26bd e909 31be e11b 0cbe 3e76 5fbe
000002b0: 5449 35bd 2ea1 42bd 942a f4bb 2764 613c
000002c0: b476 afbd fd34 7c3e 9c03 15bd dcbe 4ebc
000002d0: 5d83 51bd 3dcd a53e 74e8 d5bd d3b9 5bbd
000002e0: d314 923c 48da 6b3e e1a9 96be 4084 47ba
000002f0: cf9e a33b 634e 9fbd 7824 29be a249 283e
00000300: c0ad 523d f544 01bf d531 ebbc 6975 66be
00000310: 3544 2bbe 2e80 593e e9c1 c9bc f75d 643e
00000320: 01a0 dbbd 2644 16bf 5717 4a3e aa0d 45be
00000330: a906 343f 4da8 213e 9304 243c 81b4 56bd
00000340: 0d00 34bf e350 93bc 263c 74bd fdf3 6cbe
00000350: 5bf2 57bd c5d4 2a3e a3d6 063f 2e96 78be
00000360: 79c7 29bf e13e 70bd 9a95 acbd 92c5 7fbe
00000370: 4023 a6bd 9c13 efbe 8c74 09bf a7c6 72be
00000380: b6f7 133f 0fd3 f03e 01ce 513e 7e69 013e
00000390: 02a4 d0bd 5d35 b83e d620 68bf b098 c8bd
000003a0: 0843 1b3f fd82 813e bcb8 d2bd 1f8c aabe
000003b0: aa0e b4be 66f2 ffbd ad66 41be b990 863e
000003c0: ba5c a3bd a1a2 b53e b62a 8f3e fff0 f6bd
000003d0: bbb1 2fbf a0d8 3dbe a4b1 8abe fe84 1a3f
000003e0: c676 07be aa46 b6bc fab1 5cbf c50c b6be
000003f0: 62c8 283f 600a f93d a64c f3be 11e0 ea3e
0.08018929 -0.07566586 -0.010259826 0.0717023 0.059163947 -0.3657045 0.19033761 0.16668978
0.022812743 -0.2706615 0.042984504 -0.028251491 0.13462844 0.0042798175 0.07652535 -0.34086284
-0.13915305 0.054351944 0.18786828 -0.090734266 -0.018681357 0.025860382 0.26051936 -0.008149766
-0.14209916 -0.3944513 -0.112667456 -0.26033285 -0.017783478 -0.11670845 -0.619791 0.27879807
0.16875574 -0.021549255 -0.21927471 0.114484735 -0.09607339 -0.16892785 -0.8584307 -0.12007281
-0.15176044 -0.062476557 -0.06470919 -0.21854736 0.033358436 -0.17412728 -0.14884783 0.04855779
-0.10133381 0.24459687 0.09471123 -0.0043339795 0.020977803 0.23976289 0.099778965 0.15384139
-0.15357658 0.095033556 -0.06813696 0.057515796 -0.14778168 -0.043324277 0.14645049 0.11743296
-0.12924495 -0.15342145 0.17582953 0.11257987 -0.111202955 0.034331772 -0.25383657 -0.10507194
-0.12022983 -0.14849946 0.13294354 0.092964664 0.020978019 -0.0721529 0.08107504 -0.10832458
-0.14169474 0.08257292 -0.09380436 -0.08126667 -0.04776804 -0.00049798505 0.031025538 -0.17193785
-0.14374845 -0.08966121 0.14333327 -0.14201301 0.0007743277 -0.03917124 -0.049952235 0.089989536
0.038614962 0.13184588 0.075029135 -0.005606393 0.12900841 -0.17227912 -0.20366128 0.13120942
0.007815185 0.01499116 -0.07681354 -0.1198715 0.096630536 -0.0491445 -0.028165523 -0.028427977
-0.05561288 0.09132143 0.15791577 0.087353624 -0.09027016 -0.056868576 -0.23702729 0.1156766
-0.039502203 -0.010470566 0.049983468 -0.06318624 0.30009055 -0.1126693 -0.27073717 0.21334784
0.06359283 0.3453844 -0.14777526 0.079401225 0.096744604 -0.1523454 -0.21551509 0.31536686
-0.071800925 -0.51592386 0.00077932014 -0.16804673 0.24053341 0.11202983 0.12575567 -0.3363216
-0.5467964 0.001961852 0.13838263 0.017444227 0.11743386 -0.19577709 0.08340568 -0.030471144
-0.441651 -0.13377288 -0.024452614 -0.25791407 0.16105787 0.089711525 -0.42639583 0.08325908
0.13510686 -0.056797203 -0.025724709 0.10286285 0.1385583 -0.23465091 -1.5675812 0.1492143
-0.0405453 -0.17288937 -0.1368251 -0.2182245 -0.044259384 -0.047516994 -0.007451365 0.013756788
-0.08567563 0.24629588 -0.036380395 -0.012618747 -0.05115067 0.32383147 -0.104447275 -0.053644013
0.017832195 0.23032486 -0.29426482 -0.00076109543 0.0049932967 -0.07778623 -0.16517818 0.16434339
0.051435232 -0.50495845 -0.028710285 -0.22505726 -0.16725238 0.21240303 -0.024628596 0.2230147
-0.10723878 -0.58697736 0.19735466 -0.19243494 0.7032266 0.15786858 0.010010856 -0.052418236
-0.7031258 -0.017982906 -0.059627675 -0.23139949 -0.052721363 0.16682728 0.5267126 -0.24276039
-0.66319996 -0.058653716 -0.08426972 -0.24977711 -0.08112192 -0.46694648 -0.5369346 -0.23708592
0.5779985 0.47036025 0.2048874 0.12637898 -0.10187532 0.35978213 -0.90675104 -0.09794748
0.60649157 0.2529525 -0.102891415 -0.3331003 -0.35167438 -0.12497406 -0.18886824 0.2628229
-0.079766706 0.35475639 0.27962273 -0.12057685 -0.6863057 -0.18539667 -0.27088654 0.6035918
-0.13228902 -0.022250492 -0.8620907 -0.35556617 0.6593076 0.12160182 -0.47519416 0.45874074

lstm.bias_ih_l0 f4 [256]
00000000: 1093 0d3c 8c69 95bd 6628 343e c660 be3c
00000010: 13cb a53d 6bd5 ddbd f497 203f e32a 8dbe
00000020: f1e1 343e af6a fc3d ddcd d4bd e46a 60be
00000030: d30d a3be 232c fabc 3e20 8f3e 1e21 72bc
00000040: 5dae 8bbe f7c7 1fbe a918 033e f98b f63d
00000050: 8d9d 363c 1620 a53b 9be3 d2bd 4d32 bfbd
00000060: 3c14 51be 368b 1cbd 2edd 8d3e b495 6cbc
00000070: b4c4 3abe ee76 843e 336c 20be e912 f8bd
00000080: 0c10 f33c 989c a4bd 5960 a7bd 7a2a 103d
00000090: 5d8a fe3d c636 be3e 0230 4ebd 6ab8 233e
000000a0: bcfc c8bd 93e0 043e 3965 9f3d 2193 ef3d
000000b0: 41e9 3c3e aeb4 a73b 38b6 a8bc 878a aabd
000000c0: 6a90 383d 59d7 6fbe 8a50 b2ba a091 e6bc
000000d0: ff09 4c3e e6ee ecbd adec 1fbe 18e8 943d
000000e0: ac82 913d 07af 29bd 8e33 11bc fd12 d7bd
000000f0: b471 83be 4515 0ebe 3c53 9bbb d38e fa3d
00000100: 9cb2 4cbe c2d7 34be c7d4 97be ac46 1cbf
00000110: 6c62 6f3c 2639 5bbe fc14 20bf e780 88be
00000120: 7e41 7abe 087e e0bc 3eb9 1d3d 8da2 ffbd
00000130: 6d01 71be cf02 34be 11ee 81be 0a31 61bb
00000140: babe b8be 13c2 0b3c f7a9 a0bd 30d9 dabd
00000150: b8fa d6bd 2d59 e9bd bee4 34be 090f 18be
00000160: 79f2 87be a6e8 273d e7d5 80be e95e c93c
00000170: b859 63bd 5f8e 11be d47f 6dbe b143 9a3e
00000180: 0f0d 6ebc 3dfa 7abd 9c9f 86be e798 5ebe
00000190: af27 38bf 7b0f debe 6630 163f 2ec5 5ebd
000001a0: a7a9 3dbd 8058 f4bd b09f 21be bd9a abbe
000001b0: d9cc c9be 4f43 5abe c9f3 79bd f275 efbd
000001c0: 301e acbb a75c 44be 917d e3bd 7f31 70be
000001d0: 2499 b0be adea 95be 6754 80be 203c 17bf
000001e0: eec1 0239 6e78 00be be62 203d 009c 49be
000001f0: 4844 04be fb6f 9abc dfbf 05bf 168d 96be
00000200: 5256 babd 1cde 2b3d 5581 2a3d fab5 abbc
00000210: df27 4d3d b3fd a33d 58cb 873b 9813 403c
00000220: 370a f13b b563 4bbb a20d b0bc 15df ee3c
00000230: 7904 4fbc b502 dd3c 32eb 62bb 319d 48bc
00000240: 6ae8 64bd 685f 81bd 3c67 aabd 1625 313d
00000250: 6c74 313d cc62 853d d320 943c 1258 6f3d
00000260: 6771 fb3b 1cd2 943c acbb f1bd fed4 bb3b
00000270: e246 83bc 0254 3dbd 0610 9b3d b738 883d
00000280: ccff ce3d f4cf 3e3c bf38 83bd 4d43 35bb
00000290: dcc9 09be be0c be3d 643e 863d 6ab9 f4bd
000002a0: e79d b5bc 52cf 493d 8e80 c43c 71cc 06bd
000002b0: 86f2 3dbc eab2 9bbd 3ed4 543a 9660 7bbc
000002c0: 1317 2dbd ac40 803c 9066 14bb fe8a 8a3d
000002d0: fc1b 99bc 5473 16be 3000 8cbd 7543 8e3d
000002e0: a53e 84bd c104 fb3c aa7c 38bd 32a8 bc3c
000002f0: d81e dabd 2c31 f2bc 7fb4 55bc de03 793d
00000300: 0094 543b 31ef d2bc fe17 303e a479 373d
00000310: dcb6 a13d a9f8 c33d 3f49 f03e cbaf e3bd
00000320: 71d7 093e afee c3bd 4682 703d 962b 29be
00000330: 6fc1 99be 7f75 bfbb 36cc e53e 72cc b83d
00000340: d308 84be 2ec1 ccbd 7965 90bd a4b0 433e
00000350: 1e2f e43d 2530 bb3d 5ca3 27be 5854 53be
00000360: c1bb b5be 7952 f1bd 8fe9 683e cac7 74bd
00000370: 174d 413c 28cc d63d c08d 01be f15a 0cbe
00000380: 2198 60be c596 2ebe 3abf 663b 49e5 d4bd
00000390: 7c46 953d 0937 a93e a320 99be 9b67 683d
000003a0: 544c 08be 2814 543b c4c2 28bd f9c7 a8bd
000003b0: faf2 173e b1b9 e5bd 4e69 3c3d 9ed5 babc
000003c0: 2db6 22be 07ee 51be e4d7 5e3d 7b30 ebbc
000003d0: 16f4 ea3d 9e1e cc3d d59f 27be 8d5f 9b3d
000003e0: e62f 023e 877c 033d 9d32 15be abdc 33bd
000003f0: dc2e 73be 80e9 63be 16cf 933d c3ba 363d
0.008641019 -0.07295522 0.17593536 0.023239505 0.08095374 -0.10831722 0.6273186 -0.27571782
0.17664315 0.12325036 -0.10390828 -0.21915776 -0.31846485 -0.030538624 0.27954286 -0.014778404
-0.27281466 -0.15603624 0.12802376 0.120384164 0.0111459615 0.0050392253 -0.102973185 -0.09335766
-0.20417875 -0.0382187 0.2770781 -0.014439989 -0.18239099 0.25871986 -0.15666275 -0.12112982
0.029670738 -0.080376804 -0.08172674 0.03519676 0.124287345 0.37151164 -0.050338753 0.15988317
-0.0981383 0.12976293 0.077829786 0.116979845 0.18448354 0.0051179742 -0.020594701 -0.08327203
0.0450596 -0.23421992 -0.0013604325 -0.028145611 0.19925688 -0.11569004 -0.15617628 0.07270831
0.07105002 -0.041426685 -0.008862389 -0.105016686 -0.25672686 -0.13875301 -0.004740147 0.12234273
-0.19990009 -0.1766043 -0.29654524 -0.61045337 0.014610868 -0.21408519 -0.6253202 -0.26660845
-0.24439046 -0.027403846 0.03850674 -0.12482176 -0.235357 -0.17579196 -0.25376943 -0.0034361505
-0.36083013 0.008530158 -0.07844918 -0.106859565 -0.104970396 -0.11393962 -0.17665383 -0.14849485
-0.2655218 0.040993355 -0.25163195 0.02458139 -0.055505484 -0.14214467 -0.23193294 0.3012977
-0.014529481 -0.061273802 -0.26293647 -0.21738015 -0.7193555 -0.43371186 0.586676 -0.054387264
-0.04630437 -0.119309425 -0.15783572 -0.33516493 -0.394141 -0.21314739 -0.061023507 -0.11692418
-0.005252622 -0.19175969 -0.11107934 -0.23456381 -0.34491837 -0.29280606 -0.25064394 -0.5907612
0.0001247001 -0.1254594 0.039156668 -0.19688416 -0.12916672 -0.018852225 -0.522459 -0.29404515
-0.090984955 0.041959867 0.041627247 -0.020960797 0.050086852 0.08007374 0.0041441135 0.0117234215
0.007355954 -0.0031034772 -0.021490876 0.029159108 -0.012635344 0.02697883 -0.003462505 -0.012244509
-0.05588571 -0.063170254 -0.08320472 0.04324826 0.04332392 0.06512985 0.018082058 0.0584336
0.0076734307 0.018166594 -0.11803374 0.0057321778 -0.01602501 -0.046222694 0.075714156 0.066514425
0.10107383 0.01164626 -0.06407308 -0.0027658523 -0.1345591 0.09279774 0.06554869 -0.119494274
-0.02217002 0.04926998 0.02398708 -0.032909814 -0.011593467 -0.076024845 0.0008118785 -0.015342852
-0.042258333 0.015655838 -0.002264414 0.06764792 -0.018690102 -0.14692432 -0.06835973 0.0694646
-0.06457261 0.030641915 -0.045040764 0.02302942 -0.10650414 -0.029564463 -0.013043522 0.060794704
0.0032436848 -0.025748821 0.17196652 0.04479374 0.07896206 0.095689125 0.46930882 -0.11117514
0.1346109 -0.0956701 0.05871799 -0.16520533 -0.3003039 -0.005842864 0.44882363 0.0902337
-0.25787982 -0.099977836 -0.070506044 0.19110352 0.111417994 0.09140042 -0.1637091 -0.20637643
-0.35494807 -0.117833085 0.22745346 -0.059760846 0.011798165 0.104881585 -0.1265173 -0.13706566
-0.21933033 -0.17049702 0.0035209195 -0.10395295 0.072888345 0.330498 -0.29907712 0.05673943
-0.13310367 0.0032360647 -0.041201368 -0.08241267 0.14838782 -0.112170584 0.045998864 -0.022806939
-0.15889807 -0.20500956 0.054405108 -0.02870964 0.11472337 0.09966777 -0.16369565 0.07586584
0.12713584 0.03210118 -0.14570089 -0.043911617 -0.23748344 -0.22257042 0.07217233 0.044611704

lstm.bias_hh_l0 f4 [256]
00000000: 4fec d1bd 493e c23d 3809 1a3e 1c75 753c
00000010: 658e 30bb 5faf a8bc c5a6 ff3e 54c9 d7bd
00000020: 0dc3 703e 6006 e6bd fb91 28be 0f0e 84be
00000030: 353b 19be 9033 dc3b 68bf 963e 3b63 d43c
00000040: 6ed9 44be a551 9dbd c349 bb3d 606e 783e
00000050: f89b dc3d af05 20bd 8c29 04be 88f5 6dbe
00000060: 76d0 8abe b998 9dbc f35c ac3e de07 41be
00000070: 74ad 2dbe a4e3 d23d 7828 9ebd 70bf 53be
00000080: a853 d93c 31f9 49be 3c30 20bd 0207 313d
00000090: 87ae 613e aed1 693e cbb9 81be 3ff4 3e3e
000000a0: da35 5bbd abbb db3d ee30 8a3d 8b3e 36bc
000000b0: 2409 883e aa2f 14bc af13 27be 47f4 77bd
000000c0: 72aa adbc 6ba3 40be cf66 043c c149 82bd
000000d0: b948 313e f48f 5abb be1e 12be 4ec3 cd3d
000000e0: dca1 a53d b897 023e 1151 16bd aff0 6ebe
000000f0: 79f0 96be d566 70bc a56f 233d 0eda 923d
00000100: 2650 80bd dd2a 21be 1e95 8dbe c24a 19bf
00000110: 3e92 783c 8a35 4ebe c6e8 05bf 5c85 91be
00000120: 5070 2ebe 2091 c8bd bae1 35be 74aa 6fbe
00000130: ecd9 40be 1ae9 69bd cc28 86be b673 a4bd
00000140: 398f 9abe 82be 2ebe 875c 5ebe 8d75 6abe
00000150: 8e4f 3bbe 60a1 ffbd 4e85 4cbd e144 59be
00000160: 42c0 f0bd 9091 643e ed7d 9bbe fcb7 ddbd
00000170: e419 2abd fd80 3abe 3c4a 44be ca0e 0e3e
00000180: 6457 3b3d 7f47 73be 7936 e2be fa27 9abd
00000190: d7de 15bf 0fbb f3be 14e4 183f a2f0 2cbd
000001a0: e62c f3bc 06a7 46bd 30ab 4abe 7ba5 a2be
000001b0: 2b87 b3be 6aaa 0fbe 75bc 913d cbc8 ccbd
000001c0: 70d0 f2bd 58ba b93c 7c8b 5e3d 1996 08be
000001d0: c22b cdbe ef1b 00be 9ab7 47be ce20 18bf
000001e0: a8d7 adbd 234d 14be fd83 323d 88cc 52be
000001f0: 62dc 39be 7273 353d ac3e c1be 6232 56be
00000200: 49b6 f13b 9221 b8bd 657b 06be 5e2d dabd
00000210: 3d86 573d a5ba 26be 9d7f 8a3d e12c ce3d
00000220: ea56 d33d 3244 a43d c123 413d a5e2 65bd
00000230: da49 f0bc d517 b73c d3fb aabd c68d d43d
00000240: 3940 e53a e295 9abc e11d cf3c b987 0ebe
00000250: 28b8 edbd 9ef1 423c 9e0b 97bb ab2d 58bc
00000260: 75ef b8bd 1133 963d 3ff1 e33c 9b4e d33c
00000270: 5605 ebbc 56f9 35bd c0b0 1ebe ab9d d4bd
00000280: 67ac 83bd e6de d53c 782c 04bd 292b ba3d
00000290: da04 cfbb 0def 933b cf24 553c 8b8b 0b3d
000002a0: 33f4 2b3d 908d 2c3d 34fe a23c f1c1 68bd
000002b0: ed5f d5bd 446a 013d 6462 c23c fb88 113d
000002c0: 774e 633d 8ec0 94bd e653 80bc 263f 2b3b
000002d0: 555d bebd 3484 853d 7cca f43d daa7 cf3d
000002e0: 3b51 4d3c e26b f2bd 6d0e b1bd be0f 0abd
000002f0: f0d8 913d bf57 a83d d734 d43d bc9b 863d
00000300: ab02 d23d 730a 923d 9ba3 8a3e c69e 0b3e
00000310: 4ecb 1e3d 3f86 dfbc 62ad 0a3f 2d0b 48be
00000320: 3f66 023e f65a 6c3c 4dc1 4dbd a7db 62be
00000330: 5dc8 b9be 63ee 663d fc30 933e de31 163e
00000340: 2e15 eabd f471 76bc ed70 a53d 0aef 553e
00000350: d9fe b93d 1a19 1abd 7ffb 8dbc 739c 8cbe
00000360: 0d7b a0be 5362 90bd 5f8d c43e f2ff 71bd
00000370: 2034 8ebd 3594 3e3e 7c85 6fbe 1f02 afbe
00000380: 00df 1dbe 5888 f4bd e8ed f3bb fff2 0dbe
00000390: 0d7e 8f3e 19aa 613e b2db 1bbe 355d 613e
000003a0: 6a62 06be 1f0f ff3d 43c5 90bc 0d97 b3bd
000003b0: be74 583e bd4a d53c b8f7 cebd 22f0 693c
000003c0: 657a 29bc 5c98 ccbd 2052 f7bd 822a 3a3d
000003d0: f53c 2e3e dc60 903c ed4c 70be 77d5 e73d
000003e0: 92b5 3dbc f2c7 083e 2a12 74bd 6f28 5bbd
000003f0: e791 96be 7fb4 5bbd 32e3 b43d 6b79 ff3d
-0.102501504 0.09484536 0.15042579 0.014981534 -0.0026940343 -0.020591436 0.49931923 -0.10536447
0.23511906 -0.11231685 -0.16461937 -0.25791976 -0.14963992 0.006720014 0.29442906 0.025926223
-0.19223568 -0.07681588 0.09144928 0.24260855 0.10771936 -0.03906792 -0.12906474 -0.23238194
-0.27112168 -0.019237863 0.33664665 -0.18850657 -0.16960698 0.10297325 -0.077225626 -0.20678496
0.026529148 -0.19723965 -0.0391085 0.043219574 0.22039233 0.22833893 -0.2533706 0.1864786
-0.053518154 0.10729154 0.06747614 -0.01112331 0.26569474 -0.009044567 -0.16316102 -0.060535695
-0.021199439 -0.18812339 0.008081152 -0.06361724 0.17312898 -0.0033349963 -0.1426954 0.10047017
0.08087513 0.12753189 -0.036698405 -0.23334001 -0.2948034 -0.014672955 0.039901394 0.07170497
-0.06265287 -0.15739007 -0.2765283 -0.59879696 0.015171586 -0.20137611 -0.5230831 -0.28422058
-0.17035031 -0.097933054 -0.17761889 -0.23404866 -0.1883313 -0.05710707 -0.26203 -0.080298826
-0.30187395 -0.1706486 -0.21714984 -0.22896405 -0.18292066 -0.12481952 -0.049931817 -0.21217681
-0.1175542 0.22321153 -0.3036951 -0.10826108 -0.041528597 -0.18213268 -0.19168943 0.13872829
0.04573764 -0.23757742 -0.44182184 -0.07527156 -0.5854315 -0.47603652 0.5972302 -0.042221673
-0.029684495 -0.04849913 -0.19791865 -0.31766877 -0.35064062 -0.14029852 0.071160235 -0.09999236
-0.118561625 0.022671863 0.05433224 -0.13338508 -0.40072447 -0.12510656 -0.19503632 -0.59425056
-0.08488399 -0.1448255 0.043582905 -0.20585835 -0.18150476 0.04429955 -0.37743127 -0.20917657
0.0073764664 -0.08990778 -0.13133009 -0.10653184 0.052618254 -0.16282137 0.067626216 0.10067154
0.10319312 0.0802082 0.04715324 -0.05612435 -0.02933209 0.022350231 -0.08348813 0.10378604
0.0017490453 -0.018870298 0.025282802 -0.13918962 -0.11607391 0.011898426 -0.004609539 -0.013194482
-0.09030048 0.07333959 0.027824996 0.025794318 -0.028689068 -0.04442724 -0.15497112 -0.10381635
-0.064293675 0.026107263 -0.03226897 0.090902634 -0.006317717 0.004514581 0.013009264 0.034068625
0.041980933 0.042127192 0.019896604 -0.056825582 -0.10418687 0.031595483 0.023728557 0.035531025
0.05549475 -0.072632894 -0.015665006 0.0026130169 -0.092951454 0.06519356 0.11952683 0.10139437
0.012531574 -0.11836983 -0.086453296 -0.03370642 0.07121456 0.08219861 0.10361641 0.06572673
0.10254415 0.07130899 0.27077946 0.13634786 0.038768105 -0.027285693 0.5417081 -0.19535513
0.12734316 0.014425984 -0.050233174 -0.22154103 -0.36285678 0.056379687 0.2874831 0.1466746
-0.11429821 -0.015041817 0.080781795 0.20891967 0.090818115 -0.037621595 -0.017331837 -0.2746311
-0.3134388 -0.07050004 0.38389108 -0.05908198 -0.06943536 0.18611224 -0.23390764 -0.34181306
-0.15417099 -0.11940068 -0.007444132 -0.13862227 0.28025857 0.22037543 -0.15220526 0.22008212
-0.1312348 0.12454056 -0.017672187 -0.08769045 0.21138284 0.026036615 -0.10105842 0.0142784435
-0.010344123 -0.09989998 -0.12076211 0.045450695 0.17015441 0.017624311 -0.23466845 0.11320012
-0.011578934 0.13357523 -0.059587635 -0.053505357 -0.2940819 -0.05363893 0.088323966 0.124743305

lstm.weight_ih_l1 f4 [256, 64]
00000000: 9ec7 703d 0e03 28be 66b4 25be 8975 24be
00000010: c9d9 08be b47d c1bd 3ee4 243e 1c03 0cbe
00000020: 8bf7 d1bb 61fd 843d 3241 ed3d 0451 3dbe
00000030: 7452 ae3d f885 2dbd 1c74 82bd 0fcc 3b3e
00000040: a09f 413c 584e 3b3e 21a5 ae3c 82a9 15be
00000050: 011e b53d c432 0c3e b172 1fbd 29af 3abe
00000060: 554f c3bd dedc 013e 76bc b9bc 10ef 03bd
00000070: 1578 2c3d 3fbc 16be ec7e f4bd f845 bbbd
00000080: 8ccb f9bc c950 4e3e d640 adbe 5660 8e3c
00000090: 2a8b 56be 525a 343e 9709 783e a686 11be
000000a0: 5378 823d 6a84 4f3e 8d11 43be f16a 2cbd
000000b0: b3b2 31be ebae 5ebe e66d 0b3d 5b4e 5abc
000000c0: 54de 6cbe 4edc e9bc af74 bb3d be03 57bb
000000d0: 4d41 efbd 16e8 f4bb a07f 093e fce2 b33d
000000e0: 9566 60bd 040c d63d 1007 8d3d 3f71 57bd
000000f0: 8a47 833d 9f3c b2bd ee37 9d3e 1a29 3f3e
00000100: bb29 733e f445 c33d 0501 9a3e ff86 0d3e
00000110: af1f 14be 8370 213e d252 78be 4fb0 bdbd
00000120: d446 38be 8037 bdbd 4164 9cbd cb99 a6bc
00000130: ee3f 28bd 95be fd3d 185e 053e cf68 f3bd
00000140: cb6f 8e3b b4b3 e2bb 1ea9 da3c 4f68 313e
00000150: 0a68 7f3e 9fcd bc3c 0541 babc b147 19be
00000160: d78d 373e ab6e acbd 4213 b9bc 5df2 debd
00000170: 3c9d fc3c 9548 6f3c b817 e5bc 72c9 003c
00000180: 10ff a93d 5137 93bd 4aeb 383e f25d c0bb
00000190: 387e 2a3e bf64 86be 00ea 423d ccb1 0a3e
000001a0: da07 0a3a c54b debd afd5 77bd 0b29 533d
000001b0: d7f4 523e bef0 3dbc d657 f33c 0955 cabd
000001c0: 4c17 77bd 5fb9 053e 340b c53d 2040 0fbe
000001d0: 6ae1 c93d 1ea2 ae3d 77e1 0bbe ef4a 75bd
000001e0: 18e5 103e 9eb3 fe3d 5afb f03b 9422 8dbc
000001f0: dfae 753e d6a1 d3bd 4431 91bc e3cd 703c
00000200: df88 f2bd f81d d23c c60f 39bd 8c2d 8cbe
00000210: 1cf5 9dbd fe42 a33d b329 9f3e 136c 80bc
00000220: d1e8 3e3d a277 a2bd b0e0 533e 8c3b 673d
00000230: 1fc2 b83d 94f6 063e 52a3 a1be c892 403e
00000240: 1229 6c3e 7b02 963c f0db 9ebd 043d 2dbe
00000250: 53dc fdbd c632 303e bab2 2b3e 7bb6 4a3e
00000260: d7ae 28bd 7a79 f2bc ee0a 9ebe 9f62 39bd
00000270: f397 39be 7c37 acbd 9e26 e33d eaf4 cc3d
00000280: 6f6f 95bd ecd0 363d 5334 fbbd ffb8 eabd
00000290: a208 4cbd 57eb 0ebe a6f4 413c ece8 85be
000002a0: fb51 90bd 6e0b 2c3d 6d95 2e3e 97fd b2be
000002b0: 6662 80be ec17 7ebe 29f6 dcbd fef8 403d
000002c0: b03a 833e 3867 88bd 5182 18bd 9c21 cc3c
000002d0: ca4e ed3c 87d9 623d 5f52 183e 6da6 a03d
000002e0: ec28 dcbd cb5f 25be faf0 a0bc 7314 003e
000002f0: 0f39 f43d 9590 ccbd ebae 573e 1123 8c3d
00000300: 5146 adbd e913 7b3e e69a 113d b8aa fdbd
00000310: 2413 7a3c dc40 1dbe 31df 853d e99e 2a3e
00000320: 4324 353f 16d0 3d3e 7813 333e 914f fc3d
00000330: 01a6 dabd 7990 b43d 6591 163e f440 6dbd
00000340: 307d ccbd de81 e53d 5950 91bd 99a5 57be
00000350: 81c0 a5bd 11ca 843d 673d 94be d5eb 203e
00000360: 20ec f23d 7c99 803d 76c2 b2bd ace1 353e
00000370: 4994 483d 3d86 28bd c89c 103d 7647 4e3e
00000380: e0ea a3be b5f5 4dbe 4b3f 4ebf ac65 84be
00000390: bf47 0bbd 2a3f f5bd 0d81 8d3e a4fc 02be
000003a0: 109e 13be eacb b73b 5a0c 893d aae1 57be
000003b0: a166 493e d786 08be 147c e2bd f08d 08bd
000003c0: 0d64 263e 0642 583d b9a3 393e 6509 d73d
000003d0: 76d6 df3e 28fc c1bd 190d 193f 968f 8ebe
000003e0: fda0 8e3d c03b 96bd 245c 0bbf 66bf d53d
000003f0: 3e75 92be 8d61 e0bd 1871 1f3f b42c 2cbe
0.05878412 -0.16407415 -0.16182098 -0.16060461 -0.13364328 -0.09447804 0.16102692 -0.13673061
-0.0064076832 0.06493641 0.11584701 -0.18487936 0.085118204 -0.04236409 -0.06369802 0.18339561
0.011817843 0.18291605 0.021318974 -0.14615443 0.088436134 0.1369124 -0.038927738 -0.18230881
-0.09536616 0.1268191 -0.022672873 -0.03221041 0.042106707 -0.14720248 -0.11938271 -0.09144205
-0.030492567 0.20148005 -0.33838528 0.01737992 -0.20951524 0.1761258 0.24222408 -0.1421152
0.06370606 0.20265356 -0.19049664 -0.042094175 -0.17353325 -0.21746413 0.034040354 -0.013324345
-0.23131686 -0.028547432 0.09153115 -0.0032808627 -0.11682377 -0.007473956 0.13427591 0.08783528
-0.05478533 0.104515105 0.06886113 -0.052598234 0.06410129 -0.08702969 0.30706733 0.18668023
0.23746388 0.09534827 0.30078903 0.13821028 -0.14465211 0.15765576 -0.24250343 -0.09262144
-0.17995769 -0.092391014 -0.076363094 -0.020337006 -0.041076593 0.12389866 0.13024175 -0.11885225
0.004346823 -0.006918395 0.02669197 0.17324947 0.24942032 0.023047267 -0.022736082 -0.14968754
0.17925201 -0.08419546 -0.02259219 -0.10886071 0.030836694 0.014604707 -0.027965412 0.007860528
0.083006024 -0.07188285 0.18058506 -0.005870574 0.16649711 -0.26248738 0.04758644 0.13544387
0.0005265452 -0.10854296 -0.06050652 0.051552814 0.20601211 -0.011593042 0.02970497 -0.098795004
-0.060324952 0.13058995 0.096212775 -0.13989305 0.098574474 0.08527015 -0.13660227 -0.059885915
0.14149892 0.12436603 0.007354182 -0.017228402 0.2399249 -0.10333602 -0.017723687 0.014697525
-0.11842512 0.025649056 -0.04518106 -0.273785 -0.077127665 0.07971762 0.310865 -0.015676534
0.04660875 -0.079329744 0.2069118 0.056453273 0.09021401 0.1318 -0.31569916 0.18805993
0.23062542 0.01831173 -0.077567935 -0.16917807 -0.12395539 0.17206869 0.16767398 0.19796173
-0.041182365 -0.02959894 -0.30867714 -0.045260068 -0.1812437 -0.0840902 0.1109135 0.10007651
-0.07296645 0.044632837 -0.122658394 -0.114610665 -0.04981292 -0.13956963 0.011838114 -0.26154268
-0.070468865 0.042003088 0.17049189 -0.349591 -0.25075072 -0.24813813 -0.10789139 0.047112457
0.25630713 -0.066603124 -0.037233654 0.02491837 0.028968234 0.05538323 0.14875172 0.07844243
-0.10749993 -0.16149823 -0.019646157 0.12507801 0.119249456 -0.09988514 0.2106282 0.06842626
-0.084606774 0.24519314 0.035548113 -0.12386078 0.015263353 -0.15356773 0.06536711 0.16662182
0.70758456 0.1853641 0.17487895 0.123198636 -0.10676194 0.088166185 0.14703901 -0.057923272
-0.09984815 0.11206411 -0.07095403 -0.21059264 -0.08093358 0.064838536 -0.28953096 0.15714963
0.118614435 0.06279275 -0.08728497 0.17761868 0.04896954 -0.041143645 0.03530577 0.20144448
-0.32015133 -0.20113261 -0.8056533 -0.2585882 -0.03400397 -0.11974938 0.2763752 -0.12791687
-0.14415765 0.0056090252 0.06691809 -0.21082178 0.19668056 -0.13332687 -0.11058822 -0.033338487
0.16249104 0.05279734 0.18128861 0.10499839 0.43718308 -0.09471923 0.5978561 -0.27843922
0.069643 -0.07335615 -0.5443747 0.10436897 -0.28605074 -0.10956106 0.6228194 -0.16813928

lstm.weight_hh_l1 f4 [256, 64]
00000000: 3a0d 603d 969c 603d c2a4 7d3c 9838 a93b
00000010: d33d 1ebe 0834 9a3d a090 84bd 6d0f d93c
00000020: d304 2fbe ee99 463c 49bd 173f 6bce fcbc
00000030: bee7 d7bc f3ec 433d 44a4 b3bd 656a 0abc
00000040: 0344 583d 3edf 0bbe 52f0 4a3d edb2 843c
00000050: ca4b ef3c 59df 06bd 96ad 89be c83e 18bd
00000060: 509a efbd 816c 75bd 08f4 7ebd 6fb5 03be
00000070: 210e 03bf 03aa d13d ae75 a0bb 6c00 d3bd
00000080: 79c0 68bd f227 0a3b 7191 ccbc f765 0f3e
00000090: 1aad 78be 491c 03bc f7d3 5d3d 961e e93d
000000a0: 971f 0a3e 5b83 b9bd e05b adbb d413 d93d
000000b0: 6c71 813d 78f8 3a3e db3e f63d 94e8 5c3d
000000c0: 1afa 13bc a2c8 1b3e d697 64bc df60 5fbc
000000d0: a94b 31be 4596 83bd 076e 463d 7705 af3d
000000e0: b371 85bc 6530 ed3c 0d08 a13d ee92 b33e
000000f0: c609 a2bc 52c4 b1bd e2fa eb3d e7ed c53b
00000100: 3bca 02bd e81e c43d 483f 09be a1c5 04be
00000110: 67de f23d 4afb 4a3d 28bc 883d 52dd 70bd
00000120: 6d47 0d3e df5b a6bd 3f3e 133e 3686 f8bd
00000130: ca3a 43bd 4684 c5bc 3469 a3bd cb29 92bd
00000140: 9fcf 41bd 8500 d7bd e300 cfbd 922b 883d
00000150: b9d8 553d 851d 0a3e 622d 173e 049a 973d
00000160: 53f1 6dbc f216 df3d 2a91 353d 9a32 f73c
00000170: e739 be3d 8d70 583c d64a 14be c0a9 42be
00000180: ce4e 80bd 0e1e 733d b4ce 9a3d a600 163d
00000190: d8aa 4f3d 6613 06bd 1535 173b bbfe 2b3e
000001a0: 1752 793d 8112 02be fa8b 31be f1b8 0e3e
000001b0: 810e efbd ab85 62ba 6844 5c3d dda6 28bb
000001c0: 01e4 483c 3014 2b3c c9da d2bd a449 abbd
000001d0: c388 813c 0059 17bd 19f4 20bd cbd0 f43d
000001e0: d081 89bd 96d4 9ebd b90a eb3d e979 813c
000001f0: c64d 02bd a53e 4dbc 7184 013d d0d3 c6bd
00000200: 5920 933d 3eed 55bd b6ac aebc ec04 51be
00000210: 8777 163d 859d b63d 24b0 883d 2e30 61bc
00000220: 283e 7e3d c1e9 d43c 2fdf 85bd 0677 773b
00000230: 88f9 83bc 500f b0bd 06e1 503e 688d 0d38
00000240: 17f7 b1bc 6816 2d3e 7c39 263e 8d19 febd
00000250: faee e6bd 46a1 fcbc 96ab bf3d 8235 94bd
00000260: fbd8 abbd 0912 0f3e 45cd d73d 1a02 ec3d
00000270: 644e cc3d 2ded e6bd d871 a6bb 0879 33bc
00000280: 4fe7 4a3e 7d7e 443c eb4c c6bd 00e4 a73c
00000290: 20e9 893e 89ec bebd 71ee 883c 05d5 49bd
000002a0: fc4c 473d cc88 933c 4f7d b5bd fc53 083e
000002b0: 2fbf e73d 7251 fd3d 3fe8 c0bd 962d 1a3c
000002c0: bcbb d9bd 44cc 2dbe 1b80 743e a58b 173d
000002d0: 5995 d13d 5afd 623b dec2 fd3d 9489 303e
000002e0: f2b9 0ebe d94d 723d e96f 443e 012a 3f3c
000002f0: 139d ca3c f649 dcbd 9fff 4d3d 0b73 56bd
00000300: cdd8 1c3e fe52 a03e 7833 cdbd b4ee de3d
00000310: ab85 22be 5968 163d 5f19 99bc 63a1 dc3d
00000320: 6c6f 8d3d ad3b 913d 2314 38bf f42a 143d
00000330: 0ad0 19be 34d3 40be 4d88 983c c583 debd
00000340: 8081 d73b fb0f 59bd f850 2f3d edaa f0bd
00000350: c68e cdbd f2bc c4bd fa69 21bd ee08 73be
00000360: ad63 283e b7be 6c3e 666f 73bc 5e75 5bbe
00000370: 3b23 1f3f 524e 0abe 686f 9abe bc49 87bd
00000380: c1e5 e2bd 773c 3dbd 9dde 563c 4d15 76be
00000390: 51d3 393d 860c f03b ea9a a4bd 34a2 923e
000003a0: 6788 65bd 598f d93e c505 06be e2da 3e3e
000003b0: 7dd8 11be b59f e83c 5cac 69be 1cc5 3dbe
000003c0: e2e3 1cbe 6005 71be 6dd1 a6be c526 99be
000003d0: edde 453d 264c 8d3e 4b8d e93d 05c2 eebc
000003e0: 646f 373d a32f 50be ba0a 2e3e 89c4 85be
000003f0: 92c8 eabd a4ff 91bd 1564 0a3e a1f9 fabc
0.054700114 0.054836832 0.015481176 0.005164217 -0.15453272 0.075294554 -0.064728975 0.026496613
-0.17091684 0.012121661 0.592732 -0.030860147 -0.02635562 0.047833394 -0.087715656 -0.008448218
0.052799236 -0.13659379 0.049545594 0.0161986 0.029210944 -0.032927845 -0.26890248 -0.037169248
-0.11699355 -0.05991793 -0.062244445 -0.1286218 -0.51193434 0.10237505 -0.004896841 -0.10302815
-0.05682418 0.0021080938 -0.024971696 0.1400374 -0.24284783 -0.008002349 0.054157224 0.11382787
0.13488613 -0.09058257 -0.0052904934 0.10599485 0.06320462 0.18258846 0.120237075 0.05393274
-0.009031797 0.15213254 -0.013952216 -0.013633936 -0.17314018 -0.06425146 0.048444774 0.08545964
-0.016289568 0.02895374 0.07862864 0.35073036 -0.019780051 -0.08680023 0.115224615 0.006040323
-0.031931143 0.095762074 -0.13403046 -0.12966014 0.11858826 0.049556054 0.06676513 -0.058804817
0.13796778 -0.08122992 0.14379214 -0.12134974 -0.047663487 -0.024110924 -0.0797905 -0.071368776
-0.047317144 -0.10498146 -0.10107591 0.066489354 0.052208636 0.13487823 0.14763406 0.07402423
-0.014522868 0.10893048 0.044327892 0.030175496 0.09288388 0.013210428 -0.14481673 -0.19010067
-0.06265031 0.059354834 0.07558957 0.036621712 0.05070004 -0.032733344 0.002307241 0.1679639
0.060869303 -0.12702371 -0.17338553 0.13937737 -0.11672688 -0.0008641134 0.053776175 -0.0025734224
0.012261392 0.010441825 -0.10295636 -0.08363655 0.015812283 -0.03695011 -0.03929529 0.119538866
-0.06714213 -0.07755391 0.114766546 0.015805202 -0.03181245 -0.012527143 0.031620447 -0.09708369
0.07183904 -0.052228205 -0.02132259 -0.20412034 0.036735084 0.08916763 0.06674221 -0.013744397
0.062070996 0.025990369 -0.065367095 0.0037760152 -0.016110197 -0.08596671 0.2039834 3.3748714e-05
-0.021724267 0.16903079 0.16232866 -0.12407217 -0.1127605 -0.03083862 0.09358899 -0.07236768
-0.08390995 0.13971724 0.10537199 0.11523838 0.09975889 -0.112757064 -0.005079489 -0.010954149
0.198148 0.011993048 -0.0968264 0.020494461 0.26935673 -0.09322459 0.01671526 -0.049275417
0.048657402 0.018009566 -0.08861791 0.13313287 0.11315762 0.1236905 -0.094192974 0.009410283
-0.106315106 -0.16972452 0.23876993 0.03699841 0.10233564 0.0034635873 0.123906836 0.17239982
-0.1393812 0.059156273 0.19183315 0.011667729 0.024733102 -0.107562944 0.050292607 -0.052355807
0.15317078 0.31313318 -0.100195825 0.10885373 -0.15871303 0.036720607 -0.018688856 0.107729696
0.06906018 0.070914604 -0.71905726 0.036173776 -0.15020767 -0.18830568 0.01861968 -0.10864977
0.006576717 -0.052993756 0.042801827 -0.117513515 -0.100369975 -0.09606351 -0.039407708 -0.23733875
0.16444273 0.23119627 -0.014858102 -0.21431491 0.6216313 -0.1350644 -0.3016312 -0.066058606
-0.11078978 -0.046200242 0.013114599 -0.24031563 0.045367543 0.0073257117 -0.0803736 0.28639376
-0.056038287 0.42492178 -0.13088138 0.18638185 -0.1424274 0.028396467 -0.22819656 -0.18532223
-0.15321305 -0.23537207 -0.32581654 -0.2991239 0.0483083 0.2759716 0.114039026 -0.02914525
0.044783965 -0.20330672 0.1699628 -0.26126507 -0.11464037 -0.07128838 0.13514741 -0.03063661

lstm.bias_ih_l1 f4 [256]
00000000: 0d15 4bbd 802a 45bb 199f 48bd c777 4cbe
00000010: 6363 0ebe 7b5e d4bc bdec 1d3d 857b 16be
00000020: f1b3 eabd 6bb2 1dbe 4de6 073e 1c8d f73c
00000030: ff4d a6ba 36a5 1c39 fcba 29be ff5c 82bd
00000040: 9bf0 43bc 231c 293e 36d6 d63c 27a1 bc3d
00000050: 678d 543d 7206 aabd 7876 c0bd 5ca3 8f3d
00000060: a0d6 8fbe ff9f e2bc c4ef b9bd 9d7b d6bd
00000070: e401 8fbe cc80 8bbc 2299 f6bd 690a e4bc
00000080: e5c1 2dbd ee9f ae3d a8dd b7bd 94da 46bd
00000090: 3c35 cb3c 67f9 d4bd 7d56 27bd 72e7 2dbd
000000a0: 7f83 73be ef01 15bf d054 073c efcd 0bbe
000000b0: b282 20bc c53f b1bc 7329 9e3d 781e c5bd
000000c0: f763 20bc c0a0 8abd 8f95 9b3d e738 adbd
000000d0: 5fcd 02be 02ba 9d3d aea9 d8bc 8f24 84be
000000e0: 13f4 a13d 0eb8 623d 73e2 833d 36dd 6b3d
000000f0: f3d2 e5bd f509 99bd e05c 0fbe 4024 7c3d
00000100: da09 77bd ce4a c2bc b1c0 cabd 8095 9abd
00000110: 6d21 90bd c9a4 07bd f84b 1f3d b058 133c
00000120: 41c1 13be cb1a 4bbe 682f 19be 2f84 fbbd
00000130: 096c edbd 7b9b d7bd 719e 91bb 046c 19be
00000140: 943e fe3d f10a 29be 0e73 5abd fedd ccbc
00000150: 0902 2cbc 0bcc 71bd b770 dcbd df81 4c3d
00000160: 6924 6cbe 38f8 1b3d 4cb9 0abe 6cb2 f0bd
00000170: 8dea dbbd d890 743d 5d65 713c 04d1 e53b
00000180: 1cf4 d2bd 02bc 863d 95b8 cebd ddd2 9c3d
00000190: 9427 34bc f73e bbbd d8f4 253d a01d 2a3b
000001a0: d653 8dbd cb46 39be f5f5 b1bd 7bf4 04be
000001b0: 99c5 f93c 6bda a0bd 45e1 94bd f4e3 8bbd
000001c0: b276 1bbe 236a 2c3e b009 9fbd 7685 40be
000001d0: 1626 86bb f19d 053e d977 b3bd 115a 0dbd
000001e0: 87f6 91bd f91f 86bd 1f54 d13d f2de 70be
000001f0: b4aa 03be b89f 4fbe 783e 17b9 3504 eebd
00000200: 7742 053d 5ae2 37bd 769f 98bd 4a0f 013e
00000210: 76fb 6a3d 48bb d73c b17b c8bd 6e52 ccbc
00000220: cefa 71bd a254 86bd ae51 873c ed4a eb3d
00000230: 2d21 5c3d fbc0 923d 02e6 26bc 79c0 ed3d
00000240: a831 80bd 72a0 883d 2755 62bd 5577 993d
00000250: fee6 10bc 3bcd 13be 664a 253c 74aa 60bd
00000260: fc1e 0e3e 13ca 14be b892 86bd 5a63 7e3d
00000270: 4b85 26bc 9181 5e3d 77d9 0f3d 1f32 a23d
00000280: 43dc 49bc fc97 89bb ab8b 1f3e 19c7 aa3d
00000290: ce34 ac3d 8009 923d fe8b 2ebd 86f7 8f3b
000002a0: 8cdd 5f3c 4a60 ffbd cfaa 1a3e dd84 e63c
000002b0: 38ab 89bd 767f ce3c 2ea0 953d 7f4f 4d3c
000002c0: 1d11 46bc c169 b93d e5f6 7cbd e47e a2bd
000002d0: d946 18be 52d8 6bbd 94c2 abbc 3e72 15bd
000002e0: dc06 173d c000 093d 90b8 19be 69ff 8ebd
000002f0: f906 643d 7994 963d 11b8 e3bd 25e4 253d
00000300: bf91 babd 9b9d 703b 4079 79bd 7e72 b7bd
00000310: 0700 01be a925 1dbe b781 783d 6258 423a
00000320: 328a 2ebe b7ec 0bbe 6ed3 2cbd dbd2 a9bd
00000330: 28e6 e83d ca20 6fbc ae51 e8bc 4158 5dbe
00000340: 58f6 2f3e 2ed4 063e f272 d0bd 9f54 0cbd
00000350: 7f3a 9cbd c12e 83bd 8ac2 83be 1573 38bd
00000360: 498c 57be 7b6a c53d 0790 3abe ca79 c8bd
00000370: 1027 173e f676 bfbc 292e 06bd edce c3bd
00000380: 9d8e 1cbe 7f95 cdbc 0c26 d63d a6b5 a83d
00000390: 48b3 a23d 265d 79bd d684 e5bd 8eec b0bd
000003a0: e213 31be 92c4 43bf ff7a b0bd aea3 bfbc
000003b0: 1971 6b3d 162b e93d 924e 91bd 7733 3fbe
000003c0: 18dc 15be f481 a8bd 4b55 183e 34e9 97bd
000003d0: 6aff 44be cd0b c83d 7203 35be a945 8bbe
000003e0: 3be7 e0bd ddd0 1abd 58f2 743c 71aa d3bd
000003f0: 614c 49be 6e94 46bb 1603 5bbd 638e 27bb
-0.049580622 -0.0030085146 -0.048979852 -0.19967566 -0.139051 -0.025923958 0.03855585 -0.14695556
-0.11460102 -0.15400092 0.13271447 0.030218653 -0.001268804 0.00014938865 -0.16575235 -0.06365394
-0.01195922 0.1651464 0.02622519 0.09210425 0.051892664 -0.083020106 -0.09397596 0.0701358
-0.28093433 -0.027664183 -0.09078935 -0.10472796 -0.2793113 -0.017029189 -0.120409265 -0.027836995
-0.04242124 0.08526598 -0.089778244 -0.048548296 0.024805658 -0.10399132 -0.040853966 -0.04245705
-0.2378063 -0.58206075 0.008259967 -0.13652776 -0.009796785 -0.021636853 0.077227496 -0.09624952
-0.0097894585 -0.06768942 0.075968854 -0.08458119 -0.12773655 0.07701494 -0.026448097 -0.25809142
0.079078816 0.05535131 0.06439676 0.05758401 -0.11221876 -0.07472602 -0.14000273 0.06155801
-0.06031213 -0.02371731 -0.09900034 -0.07548046 -0.070376255 -0.033116136 0.03889081 0.008993313
-0.1442919 -0.1983444 -0.1495949 -0.122810714 -0.11592872 -0.105277024 -0.0044439365 -0.14982611
0.124142796 -0.1650808 -0.05333238 -0.025008198 -0.010498532 -0.05903248 -0.10763686 0.049928542
-0.23060764 0.038078517 -0.13547248 -0.11752781 -0.107380964 0.059708446 0.01473364 0.007013442
-0.103004664 0.065788284 -0.100938 0.076574065 -0.010995764 -0.09142869 0.040516704 0.00259576
-0.06900756 -0.18093412 -0.08689491 -0.12983887 0.03048973 -0.0785416 -0.07269529 -0.06830588
-0.15181997 0.16837363 -0.077655196 -0.18800911 -0.0040938957 0.13048531 -0.087630935 -0.034509722
-0.071270995 -0.06549067 0.10221123 -0.23522547 -0.12858087 -0.20275772 -0.00014423754 -0.11621896
0.03253409 -0.0448936 -0.0745229 0.12603489 0.057368718 0.02633442 -0.09789217 -0.02494165
-0.059077077 -0.06559111 0.01651844 0.114889 0.053742576 0.07165714 -0.010186674 0.11608977
-0.06259471 0.066712275 -0.05525699 0.07493464 -0.008844135 -0.14433758 0.010088539 -0.054850057
0.13879007 -0.1453021 -0.06570953 0.062106468 -0.010163615 0.054322783 0.0351195 0.07919716
-0.012320581 -0.004199026 0.15580623 0.08338756 0.08408509 0.07130718 -0.042613976 0.0043935208
0.013663661 -0.124695376 0.15104221 0.028139526 -0.067221105 0.025207262 0.073059425 0.01253116
-0.012089041 0.09053374 -0.061758894 -0.07934359 -0.14870776 -0.057579346 -0.020966806 -0.036485903
0.036871776 0.03344798 -0.15011811 -0.06982309 0.055670712 0.07352538 -0.11119092 0.04050078
-0.0910983 0.0036715034 -0.06090665 -0.089573845 -0.12597667 -0.15346397 0.06067058 0.0007413683
-0.17044905 -0.13664518 -0.042193823 -0.082921706 0.11372024 -0.01459522 -0.02835926 -0.21615697
0.17183816 0.13166878 -0.10178174 -0.03426039 -0.07628345 -0.06405402 -0.2573436 -0.045031626
-0.21049608 0.0963945 -0.18219005 -0.097888544 0.14760995 -0.023372155 -0.032758866 -0.09560952
-0.15288778 -0.0250957 0.104564756 0.08237772 0.079443514 -0.06087985 -0.11206977 -0.08638869
-0.17292741 -0.7647182 -0.0861721 -0.023393478 0.057480905 0.11385171 -0.07095064 -0.18671976
-0.1463474 -0.082279116 0.14876287 -0.07417527 -0.19238058 0.09767876 -0.17677096 -0.27201584
-0.10981604 -0.037796844 0.014950357 -0.103352435 -0.19658042 -0.0030300873 -0.05346974 -0.0025567047

lstm.bias_hh_l1 f4 [256]
00000000: fdd3 2fbc 2299 f9bd 65c4 b9bd f0b4 123d
00000010: a75f 803d 7d03 85bd 221d 7c3d a293 e2bd
00000020: 1e73 4dbe 3b23 49be ff12 eabc ea12 e8bd
00000030: a161 ca3d 8c6d 10bd f0e5 4abe 87b1 4cbe
00000040: 8dba 823d cdc6 a73c 3ee4 dfbd 6dae 2bbd
00000050: 3cf1 38be 6912 09be 115f cdbc e494 ac3d
00000060: 4032 49be 05e1 c3bd 0c87 4dbd 8e4a 93bd
00000070: bfd6 9cbe 88ef 38be 46c7 f0bd 7511 883b
00000080: 6259 4cbe 6d8a 21bd 5de6 8d3c 0031 8bbd
00000090: faab 84bd 1d96 8f3d d389 4fbe 30cc 623d
000000a0: 716c 29be 5716 1dbf c18f e93b 6b62 50bd
000000b0: c743 76bd 61b7 ebbb 0db1 893d 609d b3bd
000000c0: 1827 c43c 13d6 84bc 89f3 bc3d edf8 fa3c
000000d0: d6b1 a1bd 1773 f03c 28ec afbc 467d 92be
000000e0: 7aef 06be 892c 2e3e 88f4 7c3d 5663 e3bc
000000f0: da8b 5fbe 9b7c 48be 68a7 8fbc 5555 a6bd
00000100: ab1d f43b 99b3 cabd 0b01 56bd 1a01 21be
00000110: 1baf b8bd 8fd5 d13c e6b5 2ebb a233 18be
00000120: de64 7d3c ff64 2bbd d04a 1cbe 60fe 0bbe
00000130: f5e1 063d d537 0d3d b1d8 9c3c 2e63 85bd
00000140: 42d4 d23d dda7 69be c142 1cbe d517 4ebd
00000150: 6572 8abc 675d bbbd a71a 01be 8769 583a
00000160: ca6c 83be fe65 d2bd 5f18 2a3d a9fe 543c
00000170: 0d29 27bd 6455 afbd 872d 083d fe07 2dbd
00000180: 224c e039 841d 613d e1c9 2dbc 6750 bf3c
00000190: 1ada abbd b978 9ebd cadc 3ebd 03aa 2f3d
000001a0: 0034 76bd 8f47 66be 873d d33d 6a45 033d
000001b0: 656d cf3b 0972 23be 5ee1 98bd d6f3 3ebd
000001c0: d18b c03c 2b12 c03d 3ae1 a73b 0dab 59bd
000001d0: 8a00 ffbd d31f 353c 83e1 45be 4cf2 46be
000001e0: be55 b7bd 8844 12bd 662c 2e3d f20d a0be
000001f0: 6865 87bc 1e69 3bbe 2d63 67bd c543 a2bd
00000200: 771a 5abd f369 bdbd ac21 e13d d7a2 6bbd
00000210: 3905 013d bc37 87bc 9130 d4bd 1476 b3bb
00000220: 16a7 a5bc e893 e93d 9282 3a3d cd19 eb3d
00000230: 0754 8c3d 5c9d 033d 618a 813c 4a3a 77bd
00000240: 085a 2fbe 8742 40bd 09f2 0ebd 0132 d73d
00000250: d054 cb3b 742d c13d 8138 aebd 182f 1b3e
00000260: a9aa b0bd 0cc4 f0bd 4440 8f3d 6c43 dfbc
00000270: bd63 e43b bd7e 1fbc 5810 8d3d 6fd9 723c
00000280: 6f92 203d 16f3 973d 4368 bd3c 0a21 26bc
00000290: 1871 c6bd 4e9f c23d 6e69 edbc a963 09be
000002a0: 1fbe a8bc fd17 17be 3e12 023e ba31 dabd
000002b0: 317e 6b3d 8ca9 d3bd efd2 1a3e 6bc8 b7bd
000002c0: 0809 923c 59ca df3d d826 ec3d f8ff a73d
000002d0: 8aa4 833d 8b8e 09be 11a2 c4bd 4974 993d
000002e0: b6f9 933d c23c fe3d 6021 15be cdf5 7e3b
000002f0: d6f2 8b3d 79bf a43c 02b2 d4ba 1e5d f13c
00000300: 65d3 633d c077 f93c ae1a 77bd dff5 3ebe
00000310: e5f6 39be 419c 1cbd 8105 0abe a240 5dbd
00000320: 9402 04be c80f dbbd 6dda 5fbe 5fad ac3d
00000330: 30de 013e 03e6 20be 4bf3 09bd 3fe4 61be
00000340: 581a c9bc eeba 1e3e d6f0 c0bd e75e 0cbe
00000350: 8dfd 0ebe 4801 833c 9fa9 6bbe 7051 84bd
00000360: 1f6b 3cbe fb97 f83c fe94 05bc 0880 79bd
00000370: 38f1 253d 3348 04be b6bf e3bd eeb6 6dbd
00000380: cec2 5fbd 5aab 7d3d d5b4 003e 5caf cebd
00000390: e7ac 60bd 337a 1cbd 6335 3dbe e222 443d
000003a0: 26f9 b4bd ce16 66bf 93f4 703d 133f 2fbd
000003b0: cf2e 77bb c002 8b3d 7a0e e4bd 5c84 22be
000003c0: 65df 063c b68e c5bc f4cd d43c 2e99 ffbb
000003d0: afff a3bd 6d8b 69bd 421d c8bb 4373 d7bd
000003e0: 3094 b4bc f283 c7bd ca3f 90bd 6501 e5bd
000003f0: 2a84 b9bd dc40 ebbb bb54 c8bc 2a2c 56bd
-0.010731694 -0.12187411 -0.090706624 0.035817087 0.06268244 -0.06494806 0.06155122 -0.11063315
-0.20063445 -0.19642346 -0.028573511 -0.113317326 0.098819025 -0.035260722 -0.19814277 -0.19989596
0.06383238 0.020480538 -0.109322056 -0.041914392 -0.18060774 -0.13385929 -0.025069745 0.08426836
-0.19648075 -0.095644034 -0.05017762 -0.071919546 -0.30632588 -0.18060124 -0.117567584 0.0041524717
-0.19955972 -0.039438654 0.01732176 -0.067964554 -0.064781144 0.07011054 -0.2026742 0.05537051
-0.16545273 -0.6136221 0.0071277325 -0.05087511 -0.06012323 -0.0071934913 0.06723223 -0.08770251
0.023944423 -0.01621536 0.09226138 0.030636275 -0.07895248 0.029351754 -0.021474913 -0.286112
-0.1317729 0.17009176 0.06175664 -0.027757328 -0.21830693 -0.19578783 -0.01753588 -0.081217445
0.0074498258 -0.09897537 -0.05224709 -0.15723076 -0.09017774 0.025614528 -0.0026658713 -0.14863446
0.015465943 -0.041844364 -0.15262914 -0.13671255 0.032930333 0.034477074 0.019146295 -0.06513058
0.10294391 -0.22817941 -0.1525984 -0.050315697 -0.01690025 -0.091486745 -0.12607823 0.0008255471
-0.25668937 -0.1027336 0.04152715 0.013000169 -0.040810633 -0.08561209 0.033246543 -0.04224395
0.00042781333 0.05495979 -0.010607214 0.023353769 -0.08391209 -0.0773787 -0.04659728 0.042886745
-0.060108185 -0.22488235 0.1031447 0.03204862 0.0063301795 -0.1596147 -0.074648604 -0.04661926
0.02350417 0.09378465 0.0051232846 -0.053141642 -0.12451275 0.011054951 -0.19324307 -0.19428366
-0.08951901 -0.035709888 0.04252281 -0.3126064 -0.016527846 -0.18301818 -0.056491066 -0.07923082
-0.053247895 -0.09248724 0.109927505 -0.057528343 0.03149912 -0.016506068 -0.10360826 -0.0054767225
-0.020221274 0.11405164 0.045534678 0.114795305 0.068519644 0.03213249 0.015813055 -0.060358323
-0.17124188 -0.046938445 -0.03489879 0.10507584 0.006205179 0.094324976 -0.08506871 0.15154684
-0.08626301 -0.11756143 0.069946796 -0.027253829 0.0069698975 -0.009734807 0.06887883 0.014822348
0.03920215 0.07419412 0.023121005 -0.010139713 -0.0968954 0.09503041 -0.028980937 -0.13416924
-0.02059847 -0.14755245 0.12702271 -0.10654016 0.057493392 -0.10335073 0.15119527 -0.089737736
0.017826572 0.10927267 0.11530846 0.08203119 0.06427868 -0.13433282 -0.09601224 0.07492883
0.07225363 0.124139324 -0.14563513 0.0038903833 0.06833427 0.020110833 -0.0016227367 0.029463347
0.055621523 0.030452609 -0.060328178 -0.1864848 -0.18160589 -0.038234953 -0.13478662 -0.054016717
-0.12891608 -0.106963694 -0.21860667 0.084315054 0.12682414 -0.15712743 -0.033679288 -0.22059725
-0.024548694 0.15500996 -0.09420936 -0.13708077 -0.1396391 0.015991822 -0.23013924 -0.064608455
-0.18400238 0.030345907 -0.008153198 -0.060913116 0.040513247 -0.12918167 -0.1112055 -0.058035783
-0.05462914 0.06193099 0.12568982 -0.10092041 -0.054852393 -0.038202476 -0.18477397 0.04788483
-0.08836584 -0.8987855 0.058826994 -0.04278476 -0.003771711 0.06787634 -0.11135574 -0.15870804
0.008231972 -0.024115901 0.025977112 -0.007800243 -0.08007752 -0.057017732 -0.0061070034 -0.10520031
-0.022043318 -0.097419634 -0.07043417 -0.111819066 -0.090584114 -0.0071793627 -0.024454465 -0.052288212
