best_CNN-LSTM_model.pth (torch, 25360 bytes, 7 tensors)

cnn.weight f4 [64, 1, 3]
0.5384593 0.8082581 -0.6467262 0.5050294 -0.57273793 -0.06888834 -0.33296973 0.81729037
1.0281204 -0.7052791 0.87533563 0.31354573 0.2866117 0.16555187 -0.13388328 0.14736956
1.0686913 -0.28159362 -0.46081406 0.14323923 -0.37484896 0.26826084 -0.24306478 0.33451936
-0.43945324 0.18493342 0.26131368 -0.55853206 0.35453838 -0.18364304 0.9271482 -0.68727297
0.044053473 0.37986436 -0.12288662 -0.044459604 -0.1987431 0.69544065 -0.20525512 -0.4795883
0.26845747 -0.022185564 0.16564016 1.0477232 0.16336927 -0.7385881 0.61711764 0.38737902
0.81384337 -0.5482498 -1.0817037 -0.21525154 -0.991849 0.6406091 -0.27568248 -0.08386113
-0.16919915 -0.042435627 0.7986735 -0.68516165 0.30920067 -0.49102044 0.5453915 -0.5223676
0.4123122 -0.19132997 1.2967046 -0.27697867 -0.26851094 -0.800945 0.3826493 -0.61013407
1.088819 -0.7224643 -0.8401483 -0.6666863 -0.858952 0.56167567 -0.08688597 0.49568632
-0.74584514 -0.8375759 0.5382832 0.008896755 -0.007075158 -0.03291497 0.12460117 -0.57358044
-0.7163854 0.38596442 -0.033251837 -0.08808812 0.34897342 1.0474987 -0.70960605 -0.37748447
0.63186353 0.15553935 0.059917144 -0.6546039 -0.7194259 -0.07038441 0.32968473 -0.53284806
0.15721151 -0.25065646 -0.8656064 -0.053484056 -0.580199 -0.10331012 1.0114206 0.5172788
0.62002754 -0.63409406 -0.27072015 0.10245488 0.27485597 -0.3319189 -0.4604446 -0.535429
0.0921391 -0.40039992 -0.1794255 -0.36985326 -0.84394515 -0.5663576 0.30510652 -0.42289796
0.29515293 -0.6806399 0.6501728 -0.07302545 -1.0670569 0.69768965 -0.16623595 0.15315399
-0.50151235 -0.4785912 0.06985816 0.08778506 0.5705077 -0.5321402 0.8965612 -0.21684352
-0.3341984 0.10994409 0.19083652 0.12186448 0.64289755 -0.22587343 0.63650197 -0.39245903
0.08306993 -0.8051315 0.56204623 -0.13210922 -0.04875321 0.41576684 -0.041046266 -0.4224548
0.9276046 0.163561 0.2990889 -0.5960491 0.86179554 0.38862473 -0.5788672 0.97497845
0.4761619 -0.22800513 0.00704584 -0.23624405 0.15998562 -0.23655601 -0.26659557 0.21917327
-0.5155772 -0.1624819 0.2751582 0.13027783 -0.062336598 0.6638353 0.10820845 -0.50960594
0.29743177 0.159296 0.37185153 -0.20493513 0.09309849 0.1415908 0.372893 0.14957333
00000000: 78d8 093f 01ea 4e3f d98f 25bf 9b49 013f
00000010: f49e 12bf 5415 8dbd 027b aabe f139 513f
00000020: 7399 833f 2c8d 34bf ff15 603f 1189 a03e
00000030: c5be 923e 6e86 293e b318 09be 0ce8 163e
00000040: e0ca 883f 0a2d 90be d2ef ebbe 4ead 123e
00000050: 34ec bfbe 7c59 893e f9e5 78be 1f46 ab3e
00000060: 0400 e1be 305f 3d3e e8ca 853e f5fb 0ebf
00000070: 0e86 b53e ec0c 3cbe 9659 6d3f 1ff1 2fbf
00000080: 6a71 343d 957d c23e fbab fbbd 461b 36bd
00000090: 5083 4bbe 6608 323f 662e 52be 998c f5be
000000a0: 4273 893e 80be b5bc 939d 293e cb1b 863f
000000b0: 464a 273e 1c14 3dbf 6cfb 1d3f 8b56 c63e
000000c0: 0a58 503f 195a 0cbf 4475 8abf e66a 5cbe
000000d0: d1e9 7dbf f5fe 233f 4126 8dbe 62bf abbd
000000e0: 8b42 2dbe fbd0 2dbd de75 4c3f c166 2fbf
000000f0: 8d4f 9e3e 0867 fbbe c79e 0b3f e2b9 05bf
00000100: 961a d33e 01ec 43be 6bfa a53f 26d0 8dbe
00000110: 447a 89be bb0a 4dbf 9cea c33e bf31 1cbf
00000120: 6c5e 8b3f 6cf3 38bf f613 57bf f4ab 2abf
00000130: 47e4 5bbf fac9 0f3f 45f1 b1bd 99ca fd3e
00000140: b5ef 3ebf 606b 56bf eecc 093f b2c3 113c
00000150: bad6 e7bb d9d1 06bd e62e ff3d 2bd6 12bf
00000160: 0965 37bf 219d c53e 1433 08bd 8b67 b4bd
00000170: a5ac b23e 7014 863f bea8 35bf a545 c1be
00000180: cfc1 213f b545 1f3e ae6b 753d 1f94 27bf
00000190: 4c2c 38bf b425 90bd 70cc a83e bb68 08bf
000001a0: 0efc 203e 0b56 80be 6298 5dbf 1912 5bbd
000001b0: ec87 14bf 4294 d3bd 3b76 813f 626c 043f
000001c0: 20ba 1e3f fd53 22bf d59b 8abe ddd3 d13d
000001d0: ecb9 8c3e 46f1 a9be 65bf ebbe e011 09bf
000001e0: 6db3 bc3d 3801 cdbe 51bb 37be 685d bdbe
000001f0: ca0c 58bf d0fc 10bf ec36 9c3e 1586 d8be
00000200: 491e 973e 6b3e 2ebf ba71 263f 5e8e 95bd
00000210: 5295 88bf ca9b 323f c239 2abe 66d4 1c3e
00000220: 1d63 00bf e809 f5be cc11 8f3d a7c8 b33d
00000230: cb0c 123f 573a 08bf 0985 653f 3a0c 5ebe
00000240: 0d1c abbe 5e2a e13d a66a 433e 1694 f93d
00000250: ef94 243f 5d4b 67be cbf1 223f 64f0 c8be
00000260: 9120 aa3d 191d 4ebf 43e2 0f3f a447 07be
00000270: 72b1 47bd 64df d43e 2120 28bd ff4b d8be
00000280: 7f77 6d3f 897c 273e 2e22 993e ac96 18bf
00000290: a29e 5c3f d2f9 c63e a430 14bf 3098 793f
000002a0: 7ecb f33e 2d7a 69be cae0 e63b f6e9 71be
000002b0: 45d3 233e bd3b 72be 377f 88be f56e 603e
000002c0: defc 03bf a861 26be 89e1 8c3e 8d67 053e
000002d0: a954 7fbd 1cf1 293f 649c dd3d 8975 02bf
000002e0: fa48 983e 7e1e 233e 5363 be3e 84da 51be
000002f0: 6caa be3d 2efd 103e d5eb be3e c029 193e

cnn.bias f4 [64]
-0.09141235 0.10929242 -0.17977373 -0.16351226 -0.10731376 -0.15482639 0.09423591 -0.021005088
-0.009832114 0.033800952 0.016133526 -0.04250095 -0.120445624 0.015664719 -0.34378034 -0.10337357
0.075887285 0.21076447 0.10579794 0.009862307 -0.05807959 -0.0093660755 -0.11208033 0.13568522
0.120684065 0.14939016 -0.0020412803 0.017953552 -0.04312571 0.33776304 -0.0127508985 0.04815842
-0.21414642 0.41459858 0.09211034 0.26630104 0.033413354 -0.23048547 -0.0697077 0.31064674
0.17624718 0.44468606 0.041794732 -0.034814343 -0.009314622 0.074824266 -0.14287527 -0.14954779
-0.011885298 -0.22389907 -0.0053562406 0.029067915 -0.11292033 -0.2716572 -0.09470816 0.03795023
-0.0044316454 0.040837545 0.058457542 -0.102448665 -0.16634187 -0.0373232 -0.026721304 -0.2125966
00000000: 6636 bbbd b4d4 df3d 9b16 38be c26f 27be
00000010: 51c7 dbbd cf8a 1ebe c2fe c03d dd12 acbc
00000020: e016 21bc de72 0a3d 752a 843c 7a15 2ebd
00000030: 32ac f6bd 4c53 803c fa03 b0be 86b5 d3bd
00000040: cb6a 9b3d a4d2 573e 97ac d83d 8495 213c
00000050: dde4 6dbd 2b74 19bc 5f8a e5bd 11f1 0a3e
00000060: 3529 f73d bcf9 183e 00c7 05bb 5413 933c
00000070: 96a4 30bd 47ef ac3e 25e9 50bc c341 453d
00000080: 3349 5bbe 4446 d43e 59a4 bc3d 9c58 883e
00000090: 71dc 083d 6204 6cbe e9c2 8ebd 170d 9f3e
000000a0: 247a 343e e4ad e33e f430 2b3d 7c99 0ebd
000000b0: 5b9c 18bc 773d 993d e54d 12be 0e23 19be
000000c0: 8eba 42bc cc45 65be 6783 afbb d61f ee3c
000000d0: c642 e7bd a716 8bbe 5af6 c1bd b371 1b3d
000000e0: 5637 91bb 4545 273d 2d71 6f3d 9bd0 d1bd
000000f0: 8655 2abe 36e0 18bd a3e6 dabc ecb2 59be

lstm.weight_ih_l0 f4 [64, 64]
0.30165237 -0.10757392 0.58851594 0.14526215 0.92500925 0.39956027 -0.4601451 -0.012492194
-0.02628463 -0.18537366 0.37841892 0.38541037 0.53366256 -0.5319785 1.0384152 -0.22283483
0.23910514 -0.4834682 -0.6176086 -0.06473333 0.051749192 0.016030256 1.0480256 -1.0487401
0.013738005 -0.5257251 -0.022956641 -0.53914094 -0.18308698 -1.01656 -0.2597584 0.434582
1.2005237 -1.2965134 -0.43039924 -0.9115145 -0.21176496 0.43495268 -0.013111446 -1.2229111
-0.96839345 -1.3906366 -0.28674158 -0.037719905 -0.6947318 -0.094072126 0.3865409 0.071568854
-0.4027305 0.9786808 0.106982544 -0.15598632 0.8191105 0.6969671 0.34105888 0.16094443
-0.030734122 -0.148973 0.110251434 0.267018 0.9416092 -0.13449478 0.6445627 0.86054194
-0.027870214 0.007904391 0.84838986 0.4108605 -0.114322186 0.09989871 -0.56360126 -0.07971419
-0.20327887 -0.12650141 0.28215945 0.18890075 -0.23603593 -0.3475478 0.49025914 -0.10829522
-0.4920244 0.09246718 -0.22831401 0.06989318 -0.01607484 -0.12539499 0.032193948 -0.44156507
-0.58952445 -0.27435514 0.055795394 -0.19788617 -0.2264905 0.096082054 0.21510059 -0.13849357
0.1154214 -0.08374024 -0.17243743 -0.2645342 0.35754612 -0.16014282 -0.14542449 -0.117685534
-0.2743817 -0.5510976 -0.056001842 0.0706388 0.039581668 -0.20283511 0.23734331 -0.3279345
-0.08597504 0.025419807 -0.0567786 -0.008970315 -0.09983362 0.010281426 -0.17147468 0.39888477
0.051203907 0.06972407 -0.063471906 -0.23020013 0.4739665 -0.096724726 0.2173429 0.21626028
-0.20822646 0.211264 1.0709487 0.35394555 0.15850998 -0.019600244 -1.0326082 0.9668935
0.22945042 -0.61640406 0.51266336 0.15507452 -0.42977634 -0.06978367 0.6314448 -0.04115475
-1.3052372 0.9458836 -0.27273276 -0.3728762 0.24539973 -0.82231385 -0.033770442 -0.7366908
-0.99426776 0.3653882 -0.7623961 -0.44049498 0.3939701 0.35320655 0.96279466 -0.29890522
-0.04866675 -0.27514863 0.22613525 -0.71081704 1.1481541 -0.65932715 0.08137917 -0.72934484
-0.09094849 -0.8438625 0.7919974 -0.1533358 -1.4736997 -0.24094357 0.73647416 -0.5360493
0.3869258 -0.20985453 0.4379802 -0.29477176 0.16791373 0.20181562 0.40391934 2.0932765
-0.0784354 -0.27521852 -0.97879857 0.22419104 0.57863665 0.17654984 0.45067498 0.3787549
-0.017389448 0.005472471 -0.5156139 -0.36978868 -0.27410603 -0.060386397 0.3603278 -0.078236826
-0.14727096 0.3042733 0.024230463 -0.088120125 -0.1562394 -0.08640239 -0.0612944 -0.38918582
0.6364367 -0.32947606 -0.101140216 -0.31450826 0.38993472 0.13974388 0.43902516 0.19861916
0.6284841 0.11830366 -0.09025352 0.066917226 -0.065211095 -0.3409461 -0.29628125 0.3609149
0.015279688 -0.03112798 -0.14100832 0.22711363 -0.330752 0.08153715 0.07391184 0.30007178
0.29192805 0.4411185 -0.15257671 -0.084130876 0.17289403 0.45287713 -0.21071103 0.104487635
-0.20796573 0.2815997 -0.18859571 -0.101345286 -0.23513901 -0.19327824 0.15289274 -0.2732239
0.5151573 0.20808041 0.08616975 -0.32938495 -0.20724955 -0.28608972 -0.17984863 -0.34577048
00000000: 2e72 9a3e b74f dcbd fba8 163f 9abf 143e
00000010: 68cd 6c3f 2a93 cc3e 2398 ebbe 0fac 4cbc
00000020: dd52 d7bc 98d2 3dbe 20c0 c13e 8254 c53e
00000030: 1c9e 083f be2f 08bf caea 843f d02e 64be
00000040: fad7 743e 2589 f7be 991b 1ebf e892 84bd
00000050: f6f6 533d e251 833c b425 863f 1e3d 86bf
00000060: 5f15 613c ec95 06bf 910f bcbc 2405 0abf
00000070: 277b 3bbe a31e 82bf 0eff 84be 8881 de3e
00000080: c3aa 993f 27f4 a5bf 4a5d dcbe 0459 69bf
00000090: ead8 58be 1eb2 de3e 64d1 56bc 5a88 9cbf
000000a0: a2e8 77bf 6100 b2bf cbcf 92be 3080 1abd
000000b0: f1d9 31bf e3a8 c0bd b0e8 c53e b192 923d
000000c0: b132 cebe d38a 7a3f aa19 db3d e1ba 1fbe
000000d0: 3ab1 513f 706c 323f 459f ae3e 9ece 243e
000000e0: 20c6 fbbc 618c 18be 81cb e13d 95b6 883e
000000f0: 4d0d 713f 00b9 09be 1002 253f 7a4c 5c3f
00000100: 1350 e4bc 6b81 013c 1430 593f 4f5c d23e
00000110: c021 eabd b297 cc3d 2c48 10bf 3141 a3bd
00000120: 5628 50be 9689 01be 3477 903e 336f 413e
00000130: 67b3 71be c9f1 b1be 3f03 fb3e e2c9 ddbd
00000140: 9fea fbbe 6f5f bd3d 26cb 69be 2824 8f3d
00000150: 62af 83bc 8b67 00be cddd 033d d114 e2be
00000160: 13eb 16bf 4778 8cbe b689 643d aca2 4abe
00000170: 20ed 67be abc6 c43d 5443 5c3e 42d1 0dbe
00000180: 0e62 ec3d 0180 abbd 7093 30be 0771 87be
00000190: 4910 b73e 7bfc 23be 28ea 14be 1d05 f1bd
000001a0: c27b 8cbe bb14 0dbf 3062 65bd 13ab 903d
000001b0: 6320 223d 02b4 4fbe 200a 733e 08e7 a7be
000001c0: af13 b0bd 333d d03c ad90 68bd 3af8 12bc
000001d0: 9275 ccbd 6d73 283c 0f97 2fbe a03a cc3e
000001e0: 30bb 513d 7ecb 8e3d 8ffd 81bd 95b9 6bbe
000001f0: bdab f23e 9d17 c6bd 238f 5e3e 5673 5d3e
00000200: 5139 55be 9755 583e d914 893f 5a38 b53e
00000210: 7150 223e b190 a0bc 812c 84bf 5586 773f
00000220: 0df5 6a3e a8cc 1dbf e83d 033f dbcb 1e3e
00000230: a50b dcbe beea 8ebd 5ea6 213f e291 28bd
00000240: 0312 a7bf 6d25 723f a1a3 8bbe a1e9 bebe
00000250: 114a 7b3e 2983 52bf e052 0abd c597 3cbf
00000260: 5588 7ebf 2a14 bb3e 642c 43bf 8f88 e1be
00000270: 73b6 c93e 7dd7 b43e b679 763f 1b0a 99be
00000280: c956 47bd 48e0 8cbe 0090 673e 1bf8 35bf
00000290: b7f6 923f aac9 28bf 1faa a63d 58b6 3abf
000002a0: 3443 babd 5f07 58bf 57c0 4a3f 0f04 1dbe
000002b0: 31a2 bcbf e9b9 76be 9289 3c3f 873a 09bf
000002c0: 231b c63e 1be4 56be f13e e03e 53ec 96be
000002d0: 94f1 2b3e c1a8 4e3e 84ce ce3e 3ef8 0540
000002e0: bda2 a0bd 71e9 8cbe 8b92 7abf 5692 653e
000002f0: 8821 143f 7bc9 343e dfbe e63e 2aec c13e
00000300: 5174 8ebc 6a52 b33b 46ff 03bf f154 bdbe
00000310: a057 8cbe ba57 77bd e37c b83e a13a a0bd
00000320: 33ce 16be b6c9 9b3e f77e c63c 5378 b4bd
00000330: 39fd 1fbe bcf3 b0bd d60f 7bbd 5d43 c7be
00000340: 84ed 223f 16b1 a8be 9a22 cfbd 3a07 a1be
00000350: 86a5 c73e 0519 0f3e e8c7 e03e d262 4b3e
00000360: 55e4 203f 3049 f23d d6d6 b8bd e60b 893d
00000370: 658d 85bd 7d90 aebe 2db2 97be d6c9 b83e
00000380: a857 7a3c 1b00 ffbc 7c64 10be 7a90 683e
00000390: 5358 a9be f3fc a63d 175f 973d 02a3 993e
000003a0: 9877 953e 49da e13e 123d 1cbe cf4c acbd
000003b0: 220b 313e 83df e73e a2c4 57be 9dfd d53d
000003c0: f8f4 54be d62d 903e 3c1f 41be 1e8e cfbd
000003d0: 48c8 70be bbea 45be ea8f 1c3e 01e4 8bbe
000003e0: 59e1 033f 0813 553e c479 b03d 25a5 a8be
000003f0: 3a39 54be 5a7a 92be 3d2a 38be d408 b1be

lstm.weight_hh_l0 f4 [64, 16]
1.6558098 -1.2884371 -0.7463287 0.041919608 -0.5853612 0.554174 -0.58115846 -0.9275443
-0.6488205 -1.5488967 -0.56926066 1.2870187 -0.18777357 1.0173115 0.15372802 0.15903036
1.1686025 0.0026522558 -1.0451427 -0.08431168 -0.34307113 0.23597819 -0.20078516 -0.2398222
0.06072967 0.30411625 0.127972 0.48254877 -0.24379137 0.56338686 -0.17336027 0.22147037
-1.0430883 -1.7823411 0.0111987125 -0.6942043 0.26339683 0.19342859 -0.76741385 -0.31115803
-0.8795405 0.53566724 0.4008464 1.6138871 -0.28119746 0.87150896 -0.79584765 -0.4770479
0.007044468 0.15643312 -0.38663888 -0.22034715 -0.8192364 -0.29210958 0.58275485 -0.5330949
-0.5054377 0.03764929 -0.53610677 0.25787377 0.41760278 0.18191275 -0.00943001 -0.15453109
-0.020777637 -0.098025635 -0.26380074 0.2811354 -0.6596865 -0.6963466 -0.89342403 -0.36832577
0.05035019 -0.46968827 0.37102035 -0.7164634 -0.28584075 0.360704 0.44820476 0.2495889
-0.06736802 0.17409404 0.26874813 -0.07694484 -0.6025284 0.33995816 0.5027201 -0.19351831
-0.29897165 -0.36139384 -0.233443 -0.40692863 0.20724554 -0.50035715 -0.21745265 -0.08792903
0.20371945 -1.0458783 -0.19128063 0.20650548 -1.0124857 0.32743126 -0.47747612 -1.2966006
-0.3018955 -0.69664145 0.25135952 1.4132651 -0.5083331 0.9662646 -0.61677647 -0.19279422
-0.68795156 -1.6733923 -0.5510272 0.277505 -0.6008704 0.5807541 0.21094051 -1.0938336
0.3736106 0.5773944 0.17077535 1.8890203 -0.6823183 -0.44840625 -0.14998318 0.332665
0.6925297 -0.1093924 -0.30853286 0.13827156 -0.7336388 -0.281404 1.1339422 -0.8686051
-0.6485705 1.2048695 -0.06811332 -0.36294487 0.004655419 0.15808925 -0.7805827 -0.5921655
1.0540229 0.14621072 0.19524692 0.2830961 1.0839555 -0.2628609 -0.22489469 0.7685154
-0.26824424 0.1251837 -0.014664316 0.83788687 0.032620538 -0.35420367 -1.1463867 -0.40193954
1.0220008 0.007048087 -0.9188154 -0.10189299 0.20364177 -0.08873384 -0.5092241 0.28709686
-0.1811909 0.7083907 -0.15692462 0.24311467 -0.22585918 0.017076043 -0.918585 0.11578259
0.5177992 -0.044121385 -0.16983138 0.048317883 0.37540606 0.16227601 0.20896499 0.05717104
-0.18392259 0.6952192 0.25386593 0.14001217 0.04144972 0.4095722 0.050700564 0.17729588
0.5459464 -0.118875384 0.11094197 -0.21385525 -0.4910494 0.25396907 0.106431834 -0.6720648
-0.20778789 1.3754005 0.044426803 0.06589154 0.062218707 -0.068166256 -0.88467515 -0.5076847
-0.0826329 0.5576967 0.67157555 -0.36287227 0.93453586 0.21696961 0.45373806 -0.048004717
-0.122411415 -1.343713 -0.19196767 -0.7510646 0.4351444 -0.26491532 -1.0098184 -0.58253485
0.608181 0.27487728 -2.7639494 0.31785628 -2.0042324 0.07400003 1.7479193 -1.381651
1.3848715 2.9218268 0.6058631 -0.52319556 -1.3675113 1.2270687 0.06602567 0.8630329
-0.09348709 -0.2963921 -0.51132745 -0.5469011 -1.5079119 -0.1559019 0.70711327 -0.982769
-0.022227198 -0.29983723 0.35892877 -0.06751242 -0.022488203 0.45395255 -0.6204238 -0.4768962
00000000: 93f1 d33f 82eb a4bf 660f 3fbf e5b3 2b3d
00000010: 3bda 15bf 59de 0d3f cdc6 14bf 8b73 6dbf
00000020: 1a19 26bf 3f42 c6bf 11bb 11bf 07bd a43f
00000030: b747 40be 4337 823f e16a 1d3e dbd8 223e
00000040: c494 953f 78d1 2d3b 3cc7 85bf 9aab acbd
00000050: 05a7 afbe 44a4 713e a09a 4dbe f393 75be
00000060: adbf 783d 20b5 9b3e 180b 033e a210 f73e
00000070: 72a4 79be 1f3a 103f 5b85 31be 21c9 623e
00000080: eb83 85bf c123 e4bf ce7a 373c 5fb7 31bf
00000090: f3db 863e 2512 463e 3c75 44bf 1b50 9fbe
000000a0: 9129 61bf 7d21 093f bd3b cd3e da93 ce3f
000000b0: 1df9 8fbe 361b 5f3f acbc 4bbf 9f3f f4be
000000c0: 48d5 e63b 0130 203e 88f5 c5be afa2 61be
000000d0: 7ab9 51bf 638f 95be 6c2f 153f e878 08bf
000000e0: 5d64 01bf 2436 1a3d 4b3e 09bf 0808 843e
000000f0: 08d0 d53e 5647 3a3e 5480 1abc 663d 1ebe
00000100: dd35 aabc aac1 c8bd e410 87be fbf0 8f3e
00000110: 37e1 28bf c543 32bf 70b7 64bf 3295 bcbe
00000120: 003c 4e3d fb7a f0be 61f6 bd3e 256a 37bf
00000130: b859 92be 32ae b83e 187b e53e 3c94 7f3e
00000140: 3ff8 89bd b545 323e 5b99 893e 4295 9dbd
00000150: 4d3f 1abf ff0e ae3e 44b2 003f aa29 46be
00000160: d012 99be 9d08 b9be af0b 6fbe f358 d0be
00000170: 2d38 543e 6817 00bf e8ab 5ebe 2314 b4bd
00000180: d59b 503e 57df 85bf 12df 43be 2c76 533e
00000190: 2299 81bf 12a5 a73e c077 f4be 02f7 a5bf
000001a0: 0c92 9abe 1857 32bf 32b2 803e dfe5 b43f
000001b0: 1e22 02bf 1e5d 773f 10e5 1dbf d96b 45be
000001c0: 981d 30bf b831 d6bf 1e10 0dbf 2315 8e3e
000001d0: a4d2 19bf 4dac 143f ca00 583e bd02 8cbf
000001e0: e349 bf3e 1fd0 133f bcdf 2e3e 6bcb f13f
000001f0: 69ac 2ebf 8195 e5be 3195 19be 1153 aa3e
00000200: a049 313f 1f09 e0bd 05f8 9dbe 0f97 0d3e
00000210: c1cf 3bbf 2f14 90be 0525 913f e75c 5ebf
00000220: b708 26bf 2a39 9a3f ff7e 8bbd e9d3 b9be
00000230: 7c8c 983b 26e2 213e 45d4 47bf 2998 17bf
00000240: 39ea 863f 43b8 153e cfee 473e f9f1 903e
00000250: 0ebf 8a3f b495 86be cb4a 66be 6dbd 443f
00000260: 4f57 89be 2830 003e 9942 70bc c17f 563f
00000270: 1d9d 053d 2f5a b5be cdbc 92bf 05cb cdbe
00000280: ecd0 823f a4f3 e63b 7c37 6bbf 46ad d0bd
00000290: 7887 503e 16ba b5bd 835c 02bf 5cfe 923e
000002a0: 1b8a 39be 1859 353f d9b0 20be 0df3 783e
000002b0: a147 67be 0fe3 8b3c 6328 6bbf 6c1f ed3d
000002c0: 7d8e 043f a0b8 34bd 47e8 2dbe f9e8 453d
000002d0: 3935 c03e af2b 263e ebfa 553e 2e2c 6a3d
000002e0: 3456 3cbe e3f9 313f b7fa 813e 5a5f 0f3e
000002f0: 2ec7 293d 73b3 d13e 65ab 4f3d 0d8d 353e
00000300: 25c3 0b3f f074 f3bd 8b35 e33d dffc 5abe
00000310: d46a fbbe 3c08 823e eff8 d93d 700c 2cbf
00000320: 59c6 54be 200d b03f e1f8 353d 25f2 863d
00000330: 0bd9 7e3d c09a 8bbd 127a 62bf a0f7 01bf
00000340: 703b a9bd 36c5 0e3f 60ec 2b3f 65ca b9be
00000350: be3d 6f3f 482d 5e3e 5b50 e83e 98a0 44bd
00000360: d6b2 fabd cafe abbf 2c93 44be c545 40bf
00000370: 3fcb de3e fba2 87be bb41 81bf 0121 15bf
00000380: c0b1 1b3f b7bc 8c3e 8ce4 30c0 0fbe a23e
00000390: 5845 00c0 548d 973d d2bb df3f f1d9 b0bf
000003a0: 7843 b13f 36ff 3a40 d819 1b3f 25f0 05bf
000003b0: 9c0a afbf 9610 9d3f 7738 873d b9ef 5c3f
000003c0: 2976 bfbd b5c0 97be 5be6 02bf b601 0cbf
000003d0: 4203 c1bf bfa4 1fbe 6005 353f c096 7bbf
000003e0: d015 b6bc 4484 99be 83c5 b73e f443 8abd
000003f0: 2e39 b8bc 786c e83e 18d4 1ebf bd2b f4be

lstm.bias_ih_l0 f4 [64]
-0.8593915 0.13584544 -0.16990975 -0.5340037 -0.048643284 0.2512213 -0.19939874 -0.1466535
-0.4401887 -0.047868256 -0.17789966 0.4455942 -0.03718818 -0.2820914 -0.024048114 0.023023596
-0.928833 -0.88296336 -0.29975343 -0.681186 -0.6452034 0.485941 -0.37297174 -0.4736673
-0.7620269 -0.3456168 -0.111566715 -0.6355823 -0.41134596 -0.22943373 0.07027854 -0.33409333
0.4943076 0.17760316 -0.3290893 0.03014058 0.32076436 -0.22499232 0.29233176 0.26908198
0.31670567 -0.18441918 -0.06540232 0.046419755 0.020910338 -0.07791849 0.39838794 0.005874484
-0.59116757 0.0041023423 -0.24165978 -0.7876666 -0.06364079 -0.8472066 -0.057816092 0.061324596
-0.48775363 -0.19623071 -0.24327916 -0.1147536 -0.011009452 0.12579618 -0.16652218 -0.52776027
00000000: 1501 5cbf 111b 0b3e d2fc 2dbe 77b4 08bf
00000010: 2e3e 47bd 14a0 803e 2f2f 4cbe 562c 16be
00000020: 6a60 e1be 8111 44bd 542b 36be ec24 e43e
00000030: a252 18bd 496e 90be 8d00 c5bc fb9b bc3c
00000040: 00c8 6dbf e309 62bf 4879 99be 3562 2ebf
00000050: 0d2c 25bf 42cd f83e 27f6 bebe 8584 f2be
00000060: 3214 43bf aff4 b0be 177d e4bd 86b5 22bf
00000070: f09b d2be adf0 6abe 32ee 8f3d 480e abbe
00000080: e315 fd3e 9add 353e 657e a8be 61e9 f63c
00000090: 3a3b a43e 6364 66be 82ac 953e 1dc5 893e
000000a0: 3f27 a23e 62d8 3cbe a7f1 85bd a422 3e3d
000000b0: 284c ab3c bb93 9fbd 81f9 cb3e be7e c03b
000000c0: c256 17bf f16c 863b a975 77be 85a4 49bf
000000d0: 1a56 82bd 88e2 58bf 91d0 6cbd 802f 7b3d
000000e0: d8ba f9be b4f0 48be 2c1e 79be ef03 ebbd
000000f0: fd60 34bc b7d0 003e ca84 2abe 4c1b 07bf

lstm.bias_hh_l0 f4 [64]
-0.930301 0.11187022 -0.16960122 -0.7183192 -0.12052151 0.0412519 -0.25279623 -0.27292883
-0.2657599 0.16845633 -0.30886707 0.23704329 0.043850366 -0.21682817 -0.24605462 0.10857361
-1.0889785 -0.7371686 -0.25646213 -0.8154908 -0.5432169 0.4213148 -0.65926284 -0.13853991
-0.58383083 -0.65723443 -0.44424203 -0.6014286 -0.31306028 -0.2626023 -0.09476171 -0.17698492
0.8040275 0.02986082 -0.45125988 -0.032097045 0.16858783 -0.14203417 -0.024824448 0.4708911
0.37713876 0.044456422 0.23989764 0.17582761 -0.37461397 0.15270716 0.12221731 0.12577549
-0.47845796 0.28691474 -0.31509212 -0.49199742 -0.21470988 -0.70467055 -0.12105718 -0.15199064
-0.4106297 0.10081199 -0.03796538 -0.13752456 -0.24958439 0.12831514 0.102000214 -0.2582345
00000000: 3528 6ebf 371c e53d f1ab 2dbe c4e3 37bf
00000010: fbd3 f6bd c1f7 283d 826e 81be 54bd 8bbe
00000020: ae11 88be d17f 2c3e d323 9ebe 7abb 723e
00000030: 719c 333d 3408 5ebe bef5 7bbe d75b de3d
00000040: a663 8bbf 15b7 3cbf 014f 83be 01c4 50bf
00000050: 4310 0bbf 93b6 d73e 73c5 28bf 68dd 0dbe
00000060: f075 15bf 8440 28bf b173 e3be 3af7 19bf
00000070: 7049 a0be cf73 86be 6d12 c2bd 893b 35be
00000080: bfd4 4d3f ae9e f43c 890b e7be 3178 03bd
00000090: 4aa2 2c3e 6871 11be a45c cbbc a318 f13e
000000a0: 5518 c13e f017 363d baa7 753e 270c 343e
000000b0: 67cd bfbe 445f 1c3e 124d fa3d 4acb 003e
000000c0: 71f8 f4be 7de6 923e c153 a1be 16e7 fbbe
000000d0: e8dc 5bbe 4a65 34bf d4ec f7bd 6fa3 1bbe
000000e0: 0e3e d2be 8476 ce3d 9681 1bbd 3dd3 0cbe
000000f0: 0d93 7fbe 0b65 033e 7de5 d03d 5037 84be

fc.weight f4 [1, 16]
0.07661696 -0.07997315 -0.16468503 0.10500198 0.09893807 0.09614665 -0.09625446 0.048119154
0.3030669 0.15515807 0.15990452 0.09083936 -0.11113935 0.08367948 0.09792565 0.16289711
00000000: 5ae9 9c3d f6c8 a3bd 31a3 28be 470b d73d
00000010: 0ba0 ca3d 89e8 c43d 0f21 c5bd 9718 453d
00000020: 962b 9b3e c2e1 1e3e 03be 233e fd09 ba3d
00000030: 079d e3bd 2660 ab3d 3e8d c83d 80ce 263e
