best_cnn_model.pth (torch, 420308 bytes, 7 tensors)

layers.0.weight f4 [64, 1, 5]
00000000: d89e 433e ac7e afbe d042 24be f88e cbbe
00000010: e869 ae3e 39b8 b1bd e344 b83e f440 14bd
00000020: 7fb1 51bd 8cac 12bf fbe8 a63e c216 5ebe
00000030: e4e9 aa3e 8a4d 3cbd 3e47 b53e 58a1 2fbe
00000040: e810 a63e ad60 0dbf d637 a8be e6d4 6dbe
00000050: c13c 803e 166a b33e 0ec8 0dbc d2aa 413e
00000060: dc60 cfbe f2ca d23d a4ab e13e b5ee b1bd
00000070: 2b7a 043f 591a ccbe 5afe c33d 361e d93d
00000080: 03f3 683d 34c5 27bc 9bab b4be a9d1 d7bb
00000090: f613 fa3e 7471 0dbe 8506 013f ba64 ad3e
000000a0: 40eb 20be 1048 853d 9058 b7be 0406 48be
000000b0: 0062 3b3e e576 b03d 6459 3abe 2575 a43e
000000c0: 303f b33e cf86 f8be 92b0 43be 88a3 96be
000000d0: 6530 4cbe 1b5a fc3e a163 b63e 90ad 10be
000000e0: 2ef8 b2be 08c6 bcbe 7ea4 8e3e 2493 8abe
000000f0: b921 76be 30fd 02be d32d 533e 11ba eebd
00000100: cd15 91be da62 8abe 70fd aebd 68c8 b23e
00000110: 1007 dcbd 405d 27bd 9861 ad3e ecbf 023f
00000120: f77f b93d 928e 0b3f 12f9 cfbe 0f64 963d
00000130: b62d d63d c022 b2be 4c7f e0be 49ae bebe
00000140: 2945 f83e 2d1a 48be 8d74 263e 4a56 08bf
00000150: df9c 21bf e788 183e 442f 33be 135e b63e
00000160: dd70 81be fbf3 ab3e d2d8 9a3e b60c 05bf
00000170: 61aa b73e c356 aabe 60ef 08bf 881b f5bd
00000180: 1778 df3d 1356 d13e 8308 59be d6d7 c5be
00000190: 82a7 dabe 4f57 eebc bfa4 bf3e 769b 803d
000001a0: a0c9 103e 73d1 bc3c 4857 bf3e 0dff 113e
000001b0: 8f4a a93e 120c 133e c205 de3e 3649 b4be
000001c0: 1813 f9bd 3c16 a4be a03c 923e a635 383d
000001d0: 01d0 ca3e 5d9b bfbe 2589 80bd 3a5e b03e
000001e0: ae4d a63e 37e6 2f3e d434 dd3d 2150 533e
000001f0: 027c 07bf 4a6b 633e 0bdc 743e 37dc 2a3e
00000200: e560 a4be a8f5 aebe 8c19 b0bd 23c0 533d
00000210: ebc8 883e 591a d9bc 67a9 63be 6405 a5be
00000220: 3220 14bf 23f9 eebd 62d4 dfbe f5e7 723d
00000230: 6c70 6b3e 82d4 74be 4fd6 63be e044 dabd
00000240: 5068 5e3d 47bf abbe 35e3 e83d fe2c 8c3e
00000250: cd8a dc3e 6b27 b8be 3390 31be 983d 513e
00000260: 4982 023d 1e0e 013e a577 1bbf 67c2 d4be
00000270: e889 c93d 8cac 48be b67e c03e 1888 99bd
00000280: c5e9 16be c1ba a5be 59e1 66be a10c 003d
00000290: ed70 60bc 5196 aabd e42a c53e e4b1 9f3e
000002a0: 9fe8 9dbd 548d a03e 38fa 8f3e e4dc febd
000002b0: 7056 02be 5d22 acbe 7dee 7dbd 1680 c8be
000002c0: 9007 1d3d f696 f8be a2bc e3bd 310a 883e
000002d0: fa9c 2cbd e61f 25bc d37e 4fbe 44c5 f6be
000002e0: 5800 7f3e 40df c7bc 93b7 23be ca58 e23e
000002f0: ee8e d2be 2fee be3e f5fb f83e 8dd0 0fbf
00000300: cd94 673e eae1 0dbe efdf 51bc 2883 62bd
00000310: 99ab b0bc 903d b63e e36c 953d 5f4d 993e
00000320: a929 a3be fa3c 4b3e a5f1 613e 81a0 e33e
00000330: 1e18 19be 583b 243d b020 efbd 6c4e e1be
00000340: 708e 88be 5081 c53c fef3 9abe e7c3 a0be
00000350: a9bb 003f 3f3f d0bb c871 e9be 9384 54be
00000360: 647e 34be 4d8a 9cbd 9d18 603e f559 3d3e
00000370: baa5 71bd 6331 b6bc e5db 323e 8874 223e
00000380: 5913 d03d 7233 4f3e 465a a93e ebdb d1bd
00000390: 8217 bd3e f78a a3be 19f0 b0be 2d6c a5bc
000003a0: 05b2 f83e 2bd4 34bd 6d6f 20bf 7805 a73e
000003b0: 09d5 71be 4057 c83b 54ed a4bd c423 9c3e
000003c0: e821 8b3e 9439 22bf cfad eebd 1fce 65be
000003d0: 700a b03e 14e4 d2be 0a23 ecbe d4d8 f03e
000003e0: 88f4 dd3e d79d db3e 7338 903e adf7 a83e
000003f0: 0da0 cb3b 7448 00bf 63d2 bfbd 0fd7 12bf
0.19103563 -0.3427633 -0.16041112 -0.39757514 0.34065175 -0.08677716 0.35990056 -0.036194757
-0.051194664 -0.57294536 0.32599625 -0.21688369 0.3338157 -0.045972385 0.35405916 -0.17151392
0.32434773 -0.5522564 -0.328551 -0.23225746 0.25046352 0.35041875 -0.008653654 0.18912819
-0.40503585 0.10292615 0.44076264 -0.08688108 0.51748914 -0.39863852 0.09569998 0.106014654
0.05687238 -0.010239888 -0.35287175 -0.0065862727 0.48843354 -0.1381281 0.50400573 0.3386591
-0.15714741 0.065078855 -0.35809755 -0.19533545 0.18299103 0.08616427 -0.18198162 0.32120624
0.35009146 -0.4854035 -0.19110325 -0.2942164 -0.19940336 0.49287495 0.35622886 -0.14128709
-0.3495497 -0.36869836 0.27859873 -0.27065384 -0.24036302 -0.12791896 0.2062295 -0.11656583
-0.28336945 -0.27028543 -0.08544433 0.34918523 -0.107435346 -0.040860415 0.3386352 0.510741
0.090576105 0.5451442 -0.40619713 0.073433034 0.104579374 -0.34792137 -0.4384712 -0.37242344
0.48490265 -0.19541235 0.16255398 -0.53256667 -0.6312999 0.14895974 -0.17498499 0.35618648
-0.2528142 0.3358458 0.30243546 -0.5197252 0.35872176 -0.3326932 -0.5349026 -0.11968142
0.10911577 0.40885982 -0.21194653 -0.38641232 -0.42705923 -0.029094366 0.3743038 0.06279652
0.14139414 0.023049092 0.37371278 0.1425745 0.33064696 0.14360073 0.43363768 -0.35212106
-0.12161845 -0.32048213 0.28561878 0.044973038 0.3961182 -0.3742322 -0.06276158 0.3444689
0.3248114 0.17177664 0.10801092 0.20636036 -0.52923596 0.22208896 0.23912065 0.16685568
-0.32105175 -0.34171796 -0.08598623 0.051696908 0.26715788 -0.026501821 -0.2223259 -0.32230675
-0.57861626 -0.11668613 -0.43716723 0.059303243 0.22992104 -0.2390919 -0.22249721 -0.10657668
0.0542987 -0.3354437 0.11371461 0.27378076 0.43074647 -0.35967574 -0.17340164 0.20433652
0.03186253 0.12603042 -0.6072944 -0.41554567 0.09840757 -0.19597071 0.37596673 -0.07496661
-0.14737613 -0.32369044 -0.22546901 0.031262044 -0.013698799 -0.08329452 0.38509285 0.31190407
-0.077103846 0.31357825 0.2812059 -0.12444475 -0.12728286 -0.33619967 -0.06199502 -0.39160222
0.03833729 -0.48552674 -0.11119963 0.26570275 -0.042141892 -0.010078406 -0.20263223 -0.48197377
0.24902475 -0.024398446 -0.15987997 0.44208366 -0.41124672 0.37291095 0.48629728 -0.561776
0.22615357 -0.1385571 -0.012809738 -0.05530086 -0.0215662 0.35593843 0.07296159 0.29941842
-0.31867722 0.1984748 0.22064836 0.44458392 -0.14950606 0.040095657 -0.116761565 -0.44005144
-0.2667117 0.024109513 -0.30264276 -0.31399462 0.50286347 -0.006355196 -0.4559462 -0.20753698
-0.17626339 -0.07643566 0.21884389 0.18491347 -0.05899594 -0.022240346 0.17466696 0.15864766
0.1015994 0.20234469 0.33076686 -0.10247024 0.36931998 -0.3194196 -0.3455818 -0.020193184
0.48573318 -0.04414765 -0.6267002 0.3262136 -0.23616423 0.0061139166 -0.08053079 0.30496037
0.27174306 -0.6336911 -0.11654245 -0.2244191 0.34382963 -0.41189635 -0.46120483 0.47040427
0.43350625 0.4289386 0.28168067 0.33001462 0.006214148 -0.50110555 -0.093663 -0.57359403

layers.0.bias f4 [64]
00000000: 4a9f a4be 6a1d 8e3d 0d81 e4bc 8891 933e
00000010: eaed a33b f034 15be 1371 833c 3985 d5be
00000020: de9a 13be 54c5 e63c d25c 88bd 0408 cebe
00000030: d44b 503e 2b9d cbbe b7f5 8fbe 59f5 a93e
00000040: a009 d63d bd0e 1ebb 5940 fa3d 6552 6d3d
00000050: 4e43 d13c ba5c d5be 1837 cfbe 2257 c03b
00000060: 69d5 3c3c 3a7e c3be 01c8 9b3d 22b8 2c3e
00000070: 2ccc d2be ce0c e5be 49e3 f33d 9df8 c1be
00000080: 026a 593e 4b0b c7bc d27d 443d 1002 133e
00000090: 9f39 133e 837b a83c 5754 d13c a454 8cbe
000000a0: e410 dcbb 2fa6 75be e342 683e 37e1 923c
000000b0: 2284 22be 811a c1be 3801 003e e914 bcbe
000000c0: 5f1c ca3d 47ab 9abe 6fd1 ab3c 9bb8 873d
000000d0: 3035 26be 2631 53bb 5911 083d a8c1 ac3e
000000e0: ce08 133e a22e eb3c fc15 cfbd 5c0e 97be
000000f0: d67d 9dbe 6ab8 623e 4b83 cabe ab54 473e
-0.32152778 0.06939204 -0.027893567 0.2882197 0.005002727 -0.14570975 0.016045129 -0.41703203
-0.14414546 0.028170265 -0.06658329 -0.4024049 0.20341426 -0.39768347 -0.28117153 0.33194998
0.104510546 -0.0024117671 0.122193046 0.057939906 0.025544789 -0.41672307 -0.4047172 0.005869762
0.01152549 -0.3818224 0.07606507 0.16867116 -0.41171396 -0.44736332 0.119085856 -0.3788499
0.21231845 -0.024297377 0.047971554 0.14356256 0.1437745 0.020566707 0.025552912 -0.27408326
-0.0067158807 -0.23989175 0.22681765 0.017929656 -0.15870717 -0.37715533 0.12500465 -0.36734703
0.098686926 -0.302088 0.02097389 0.066270076 -0.16231227 -0.003222534 0.03321967 0.33741498
0.14358827 0.02870876 -0.10111615 -0.29503143 -0.30760068 0.22140661 -0.39553294 0.19465892

layers.2.weight f4 [64, 64, 5]
00000000: 580d b23c 548c 5bbd b022 4fbb baa6 07bd
00000010: d0e5 94bb 130c 50bd 97bc 893c 71b0 87bd
00000020: 9215 f33c 04eb 823c 671f fdbc e36b b93a
00000030: 932b 0abc 2c80 cabd b2a4 f6bc da55 8a3d
00000040: 7e4d 98bd 91b4 6abd 9b46 d93d d5db 20bd
00000050: 92a3 cf3b b8b5 2c3d 428d 20bd f247 b63b
00000060: 1ae3 80bd 2395 fbbd 414e 283d 245e 81bd
00000070: 4cb0 1dbd 4c1a e2be bf22 47bd a6a9 233d
00000080: 176a 103d 2530 843c ea5c 533d 1d1e 7bbd
00000090: bbf0 d73d 33d0 703c be06 47be b2d9 d8bc
000000a0: aa99 24bd 5a7e 0b3d 246c d53c 3c14 32bd
000000b0: 5a63 01bd dcc3 03be eb5d abbd a0b5 d13c
000000c0: bf3d a2bd c198 8f3d 594a 57be e0b4 14be
000000d0: 197a 81be 7029 303e 283b d53c 4c99 c33c
000000e0: 84a7 1e3d 3846 a5bb aca6 c43c 1453 a53c
000000f0: c2fc 8dbd aff0 c3bd 01f0 003c 9c50 513d
00000100: 9466 eb3c a870 953c 42da 84bc cc53 043d
00000110: 18d5 f13c aa37 52bd 3754 4fbd d909 d93c
00000120: 220b 903d f911 39be 49e8 a9be c29e 53bd
00000130: 2529 53bd 6892 09bd 715c 863d f2e9 31bc
00000140: 8f81 11be 42cd 00be 07e0 113e 401e 22be
00000150: c7c6 863e 76ca 163c 0906 bebd 1279 703d
00000160: fc6c 3ebd 9a0f d63c e381 d4bd e5c9 f5bd
00000170: fed5 063e 33d7 3fbe 16f5 5f3e 80e8 febb
00000180: ff2e 86bd f543 493c b891 023b 2165 403d
00000190: 4fc1 8fbd 5405 33be 3d5f 09bc b960 f0bc
000001a0: a7ac 633c 155a 2d3d b8b8 803d 2d25 66bd
000001b0: 8340 1ebe ab4f b93c 5c9b dbbc 7013 e53c
000001c0: 44c6 e43c 8298 073d 4c18 adbc 767e 4abd
000001d0: e7bf d43c aea7 97bd c43a b53c ba8e a4bd
000001e0: aae5 943c 659d 5bbc 1c11 863c 13a8 8cbb
000001f0: f3ac 373d f548 1cbd 3bb2 3dbc 5051 b73b
00000200: 4a68 35bb 0e58 d2bc f323 01bd d0e0 25bd
00000210: 5641 ee3c 81f7 1cbb 15be 1dbd ab6f dbbd
00000220: 9378 64be 8b2f c93d e977 b83c bcbf 7c3d
00000230: 888a 2fbd 44b0 bbbc d0a9 1b3d 002d 6339
00000240: 48ad 5a3c 46ff e5bc 4360 293d c779 6bbd
00000250: 7be4 493b 10ec f23b ef4b 09bd eab2 5abd
00000260: 1fbc 833c 606e 853d db02 703c 981a da3c
00000270: a1cb 5abd 3656 2a3d ec72 8d3c 88c2 87bb
00000280: 1a1d 56bc 203f 8bbd b472 913c bedc e7bc
00000290: 132a 373d cd96 ee3c 2a77 40bd e4e9 2cbd
000002a0: fca3 80bd 2ced d6bd 7784 8dbd 6625 aa3c
000002b0: 57c3 03bd 5e0e a63c 6f75 d7bb 284c 553c
000002c0: ac23 14bd d691 4ebd 8ce0 633d 117f b4bd
000002d0: febf 56bd da86 aebd 0f19 823d 8d12 89bc
000002e0: 92f4 1d3d 1b3d 7d3d ea0d 5abe 3b8d 103e
000002f0: f197 85be 608c 113d 6786 c5ba 3cb8 ff3c
00000300: 951a aa3d ae55 75bd a48d 173e f1b1 123d
00000310: 9a07 27be 1158 3dbe d9e9 56bd cc4d 7a3d
00000320: d214 85bd 429a 7cbd 2335 f3bc f0ff c73c
00000330: 3792 aebd 48be d2bc 9e3c d9bc 66e0 02bd
00000340: ab02 14bd 5004 21bc 7ed7 f2bd 726f 04bc
00000350: b21e 083c dcbd 9abc a596 813d 2b86 abbd
00000360: b927 b1bd 6c1a ecbc d723 3cbd 70ce d5bc
00000370: 2f3b 9b3d 8f40 35bd c69a 56be 1700 6abe
00000380: 46b7 49bd 4070 98bd ceb1 f3bc ffee 8b3d
00000390: 29e6 753b eea5 e8bc 64ac 9cbd 8d40 39bd
000003a0: 7050 2b3d 668c de3c be9e f63c 3afa 05bd
000003b0: fc5c c9bc ea4d 223d b2fb 42bd 9062 5b3d
000003c0: 785a d7bd 77e4 b43b d2de 153d 973f 6cbd
000003d0: c471 18bc 6f8b 37bc 3824 09be 5e14 84be
000003e0: afc3 debd e43c ec39 1e5a ef3b f7ca 2dbd
000003f0: 2e99 873c b194 053d 25fc 4a3d fdae abbc
0.021734878 -0.053600624 -0.0031606369 -0.033117987 -0.0045439973 -0.050792765 0.01681356 -0.066254504
0.029673371 0.015981205 -0.030898763 0.0014146533 -0.0084332405 -0.09887728 -0.03010783 0.06754656
-0.074366555 -0.057301108 0.1060917 -0.03927215 0.006336638 0.042165488 -0.039197214 0.005562776
-0.06293316 -0.12284305 0.041090254 -0.06316784 -0.038498208 -0.44160688 -0.04861712 0.03995671
0.035257425 0.016136238 0.05160228 -0.061308015 0.105439626 0.014698076 -0.19436166 -0.026470993
-0.040185608 0.034056045 0.026052542 -0.04347633 -0.03158889 -0.12867683 -0.08367523 0.0255993
-0.079219334 0.07011557 -0.21024455 -0.14522123 -0.25288466 0.17203307 0.026029184 0.023876809
0.038733974 -0.005043771 0.024005257 0.020181216 -0.06932975 -0.09567391 0.007869721 0.051102266
0.028735436 0.018242195 -0.016217355 0.032306477 0.029520556 -0.051322617 -0.050617423 0.026493954
0.070333734 -0.18073262 -0.33185032 -0.051665075 -0.05155291 -0.03358689 0.065606005 -0.010859
-0.14209579 -0.125783 0.14245616 -0.15831852 0.2632353 0.009203544 -0.09278495 0.05870921
-0.046490654 0.026130486 -0.103763364 -0.12001399 0.13167569 -0.18734436 0.21870837 -0.007779181
-0.065519325 0.012284269 0.001992328 0.046971444 -0.070192926 -0.17482501 -0.008384523 -0.029342996
0.013896144 0.042322237 0.06285232 -0.056187797 -0.15454297 0.022620996 -0.02680748 0.02796337
0.027926572 0.033104427 -0.02112975 -0.04943701 0.025970412 -0.07405029 0.022122748 -0.080350354
0.018175919 -0.013404225 0.01636558 -0.004292497 0.04484267 -0.038155515 -0.011578138 0.00559441
-0.002768057 -0.025676753 -0.031528424 -0.0404976 0.029083889 -0.0023951235 -0.038511354 -0.10714658
-0.2231162 0.09823521 0.022518115 0.06170629 -0.042856723 -0.022911198 0.038003743 0.00021665171
0.0133469775 -0.028075825 0.041351568 -0.057489183 0.003080635 0.0074133947 -0.03351968 -0.053393282
0.016080914 0.06515193 0.014649118 0.026624009 -0.053416852 0.041586123 0.017266713 -0.004143063
-0.013068462 -0.067991495 0.01775489 -0.0283035 0.04471786 0.029124642 -0.046988644 -0.042215243
-0.062812775 -0.10494456 -0.06910031 0.020769786 -0.032168712 0.020270523 -0.0065752785 0.013018645
-0.03616683 -0.05043205 0.055634066 -0.088132985 -0.05242919 -0.08521815 0.06352436 -0.016732479
0.03856332 0.061825853 -0.2129437 0.14116375 -0.26092485 0.035534263 -0.0015069962 0.03121578
0.08305851 -0.059896164 0.14800125 0.03581423 -0.16311494 -0.18490626 -0.05246911 0.06110935
-0.06498112 -0.06167055 -0.029688423 0.024414033 -0.08523982 -0.025725499 -0.026518162 -0.031952284
-0.036135357 -0.009827688 -0.11857508 -0.008083211 0.0083081 -0.01888936 0.06327561 -0.083752
-0.086501546 -0.028821193 -0.045932617 -0.026099414 0.07579648 -0.04425102 -0.20957479 -0.22851597
-0.04924705 -0.07443285 -0.02974787 0.06832694 0.003752122 -0.028399434 -0.076500684 -0.045227576
0.041824758 0.027166557 0.030104991 -0.032709338 -0.024580471 0.039625086 -0.047603317 0.053560793
-0.105153024 0.005520399 0.03658945 -0.05767783 -0.009304468 -0.011202677 -0.13392723 -0.2579679
-0.108771674 0.00045058795 0.007304444 -0.04242989 0.016552534 0.032612506 0.04955687 -0.020957464

layers.2.bias f4 [64]
00000000: 1ec3 e53b c219 75bd e5ea 8abc bfc4 17bd
00000010: 45f8 7b3b 67ae 87bd 57cc 3abd 5533 73bc
00000020: 1b87 39bd 961d 773c c708 97bc 8290 39bd
00000030: 436e 68bb 93d9 4fbd d407 333c 68e7 a9bc
00000040: bcab 19bb 80d2 c1bb 0582 13bb ab5e 27ba
00000050: ed7b 253d f157 043d 42e8 1bbd 6139 84bd
00000060: 3ebc 923c 2957 06bc b966 55bc e66c d1bc
00000070: d6f0 f53c e2fc d03c 49f3 9a3c f0d3 06bd
00000080: 6d19 e93c 08be 81bc 4e20 36bd f5ef 91bc
00000090: bc00 efbc 02bb f1bc 768e 863b b9dd 88bd
000000a0: 374f 0f3c 2c08 80bd e8b1 2d3d 2481 d5bc
000000b0: 77ad 8fbb 82c2 d93c dd10 70bd 47a2 75bc
000000c0: c8fc 80ba 494c b5bc 95c3 8fbc 8594 083d
000000d0: 1fe9 843c b239 27bd bce4 203d 21dd 8838
000000e0: 3e72 e3bc ba8d bebc e2ec 4dbd fb7f d33c
000000f0: 3590 fabc ed2e 663d 0b9a 82bd b65a 87bd
0.007011785 -0.059839018 -0.01695771 -0.037052866 0.003844754 -0.066250615 -0.04560503 -0.0148437815
-0.045294862 0.015082737 -0.018436803 -0.04530383 -0.0035466112 -0.050744604 0.010927159 -0.020740226
-0.002344831 -0.005914986 -0.0022507918 -0.0006384651 0.040401388 0.03231043 -0.038063295 -0.06456257
0.017912026 -0.008199492 -0.013024979 -0.025564622 0.030022066 0.025511209 0.018914836 -0.032916963
0.028454507 -0.015837684 -0.044464402 -0.017814616 -0.029175155 -0.029508118 0.004106338 -0.06682915
0.008746914 -0.06251559 0.042405993 -0.026062556 -0.0043846923 0.026582006 -0.058609832 -0.014992303
-0.000984096 -0.022131102 -0.017549315 0.033344764 0.016224442 -0.040826507 0.039280638 6.526174e-05
-0.027764436 -0.02326094 -0.050274737 0.025817862 -0.030586341 0.056197096 -0.063770376 -0.066090986

fc1.weight f4 [50, 1664]
00000000: d39c 953d b558 cdbb 1732 373c 137d 033c
00000010: 1b63 2fbc bd7b 0d3c ca78 513c 2b03 da3b
00000020: d148 b4bc e044 923c 979c 6fbb 7440 453c
00000030: 9513 71bb ec86 2ebd 9786 893b 15d9 f93a
00000040: 6443 33bc 7141 15bd 9bf3 443c 8f45 42bc
00000050: 0481 8a3b 953d 26bc 99eb 8d3b 7deb 03bb
00000060: 0959 b6bc 56d0 563c 6f83 b33c 8042 4739
00000070: 5398 953c 265c 62bc afb6 853c 8a33 70bc
00000080: 281e 2bbb 3b3f 843c ebdf a83c 1caa 24bc
00000090: fb59 c23c 23cb b13c 4501 a53c 3d22 92bc
000000a0: 8c17 09bc eb3e 71bc 7278 76bc 5035 c63a
000000b0: 4a06 78bc 1b0f 5ebc c667 3b3c 010c c43c
000000c0: e3d1 adbc 8814 753b 5199 ae3c 672f ad3c
000000d0: ed4a 03bc a6f5 763c d638 363a 100a 683b
000000e0: 9e8b 853c 2daf cd3b 55ee 59bc d6c7 9b3b
000000f0: 616d 6abc c5b1 9ebc ede9 f53b af44 85bc
00000100: 7701 ccbc 2301 213c dbb5 683b 7b7a babc
00000110: 3bd9 393c 7bac d6bb 4dc7 eabb a65d 963c
00000120: 15dd c9bc 2b07 f239 60f6 94bb 2a27 d3b8
00000130: 69bb 003b 0a5b 403c 60cf a83a 99d8 9cbc
00000140: 4203 39bc 0a44 6c3c d0c1 523b 2af8 173c
00000150: 8e4c 283c 20e0 143b 33d3 25bc 95d2 9b3c
00000160: 34a4 f0bb feb5 7b3c 00a3 883a d00a 86bb
00000170: 86a9 193c faba 3e3c 8585 ae3c 7da3 73bc
00000180: 2e38 59bc 2ab6 253c b366 42bc 9bf0 a0bc
00000190: f14c c13c c881 ca3b 52ee 9cbc 0aeb 7dbb
000001a0: 0e83 1f3c 840b eabb e4a4 613b 2e84 e1bc
000001b0: 9099 2e3c 84d4 97bc e122 dabc 3a44 26bb
000001c0: df34 87bb e419 98bc e424 93bc ccf9 eebc
000001d0: f6ea 99bc 5754 acbc f40b b13b fd21 883c
000001e0: d2e8 b9bc 4473 7cbc 40e4 95bb c438 c33b
000001f0: 4f91 7f3c 4d03 edbc d7bb dab9 8653 483c
00000200: ad92 b4ba adc9 88ba fad1 ddbc 80d4 e2bc
00000210: 0c28 c7bc 6e33 f0bb c342 763c 990d c1bc
00000220: c8a1 b5bc b06e ddbc dc3c abbc de32 373c
00000230: cbd7 94bc 6afa edbc 8503 27bc d703 31bc
00000240: 7113 6cbc 9e76 72bb beab 52bc 11b2 113b
00000250: 7cc7 443b 4e12 7a3c 2cb2 283c 96dd ed3b
00000260: c4e5 9abb 056b ecbc 89c8 8cbc c260 8abb
00000270: 8078 be3b 98e9 213b a452 d03b 6b73 41bc
00000280: 0980 a23c fb73 bd3c 2d05 bd3c ff1e c83c
00000290: fe81 35bc afed 803c 34ed a4bb 7624 91bc
000002a0: 58fc fdbb 5c26 c33b 8422 8cbb bfda 843c
000002b0: cc05 e33b 5994 a4bc 7160 b03c fa86 3b3c
000002c0: 6055 983b d8d2 a7bc 005d 3cb9 d670 763c
000002d0: 9577 9e3c 3602 763c 5f37 5a3d 7517 973d
000002e0: e83b c3bd fd32 5dbd 49a2 a8bc 06ca 29bc
000002f0: 832b 35be 7110 b9bd 79e3 5a3c 9576 ea3c
00000300: 1a08 0d3d e405 5c3e 109f 983d 1f7a f0bc
00000310: 53e1 9e3d b19d c53c 269e a03d 8bc4 983d
00000320: c669 48bd b83f 2bbd 5170 6d3c fd99 32be
00000330: ed53 02be 3ba6 8abd b784 fcbd 3e9c c1bd
00000340: f844 87bc 48f2 98bc c42a 6ebc f207 193c
00000350: cbbc c7bc 180b b5bc 2bbc 0b3a d349 e03b
00000360: 2da7 853c 9075 efbc 7e31 833c 22b3 0bbd
00000370: 9b94 eebc f666 093c 0fc6 33bb 5ef5 11bc
00000380: b1fc 35bc a8ea 553c ac98 303c c2df 8fbb
00000390: 48c8 4d3c 45f8 603c 62d2 23bc c2be 2dbc
000003a0: 66b3 f0bc bf74 12bc f37d 8e3c 8be0 48bc
000003b0: 3a42 32bc 1794 b4bc 8134 b8bc b0c6 c43a
000003c0: 3004 72bb 2971 51bc a3bb 9ebc 381d e6bb
000003d0: 6ce2 05bc 660d 7e3c b7e4 a33c e213 743c
000003e0: 4e61 123c 3823 3abb 4a6c 383c 0952 58bc
000003f0: de48 023c 6218 a2bc c7cb 51bc a3fc c03c
0.073053025 -0.006266678 0.011181376 0.0080254255 -0.010704781 0.008635459 0.012785146 0.0066532097
-0.022007378 0.017855108 -0.003656184 0.012039293 -0.0036785353 -0.04260914 0.0041969526 0.0019061888
-0.01094136 -0.036439363 0.012020971 -0.011857404 0.0042268056 -0.010146518 0.004331064 -0.0020129376
-0.022259252 0.013111195 0.021913258 0.00019002892 0.01826111 -0.013815915 0.016322462 -0.014660725
-0.0026110504 0.016143432 0.020614585 -0.010050323 0.023724547 0.021703308 0.020142207 -0.017838592
-0.00836743 -0.0147244735 -0.015043365 0.001512209 -0.015138218 -0.013553406 0.011438316 0.023931505
-0.021218246 0.003739627 0.021313341 0.021140767 -0.008013469 0.015073216 0.0006951218 0.0035406388
0.016301926 0.006276986 -0.013301452 0.004754047 -0.0143083045 -0.019371876 0.0075046928 -0.016268102
-0.024903042 0.009826931 0.0035508785 -0.022763481 0.011343296 -0.006551323 -0.007164872 0.018355202
-0.024641553 0.00046163177 -0.0045459718 -0.00010068559 0.0019642955 0.011740455 0.0012879185 -0.01914625
-0.011292281 0.014420519 0.0032158978 0.0092754755 0.010272158 0.0022716597 -0.010121155 0.019021312
-0.0073437933 0.015363215 0.0010424554 -0.0040906444 0.009378796 0.011641258 0.021303901 -0.014870522
-0.013258023 0.010114232 -0.011865306 -0.01964598 0.023596259 0.006180022 -0.019156609 -0.003874483
0.009735836 -0.007142486 0.0034430558 -0.027528848 0.010656729 -0.018533953 -0.02662796 -0.0025370256
-0.004126176 -0.018567033 -0.017961927 -0.029171847 -0.018788796 -0.02103631 0.0054030363 0.01661777
-0.022694025 -0.015408341 -0.0045743287 0.0059576947 0.015598609 -0.028932238 -0.00041720152 0.012226945
-0.0013776623 -0.0010436081 -0.027077664 -0.027689219 -0.024311088 -0.0073303496 0.015030566 -0.023566054
-0.02217187 -0.027030319 -0.020903043 0.011181561 -0.018169304 -0.02905007 -0.01019371 -0.010804138
-0.014408932 -0.003699697 -0.012858329 0.002223138 0.0030026129 0.015263153 0.010296386 0.007259081
-0.004727097 -0.028859625 -0.017185466 -0.00422296 0.0058127046 0.0024705883 0.006357508 -0.011807303
0.019836443 0.023126593 0.023073757 0.024428843 -0.011078356 0.015738336 -0.0050331596 -0.017717581
-0.007751029 0.0059555005 -0.0042765755 0.016217588 0.0069281813 -0.020090269 0.021530362 0.011445755
0.0046488494 -0.02048628 -0.00017963722 0.015041551 0.01934413 0.015015176 0.053275462 0.07377521
-0.095329106 -0.054003704 -0.020585196 -0.010363108 -0.1769238 -0.09036339 0.013359898 0.028620997
0.034431554 0.21486622 0.07452214 -0.029355107 0.07757821 0.024123045 0.078426644 0.074593626
-0.048929 -0.041808814 0.01449211 -0.17441554 -0.12727328 -0.06769987 -0.12330001 -0.09453629
-0.016512379 -0.018670216 -0.014536563 0.009340273 -0.024382016 -0.022100016 0.00053304684 0.006844738
0.016315067 -0.029230863 0.01601481 -0.03410638 -0.029123595 0.008386364 -0.0027431285 -0.008908598
-0.01110761 0.013056435 0.010778587 -0.0043906877 0.012559958 0.013731067 -0.00999889 -0.010604562
-0.029382419 -0.008938967 0.017394042 -0.012260566 -0.010880047 -0.022043271 -0.022485973 0.0015012827
-0.0036928765 -0.012783327 -0.019376582 -0.007022526 -0.008171659 0.015506124 0.02000652 0.014897319
0.008934332 -0.002840234 0.011256287 -0.013203152 0.007951943 -0.019787017 -0.012804932 0.023557967

fc1.bias f4 [50]
00000000: 927c 0b3d d6c3 193d 164e e2bc a093 97bb
00000010: 3e07 f93c 57f0 3cbc b70f 00bd 3351 fb3c
00000020: f3c1 0cbd a695 1d3d 9027 bf3c 3d53 483d
00000030: f5b4 ac3a 2e75 f9bc f6ab 68bc 2b21 12bc
00000040: d92b 16bd b3d5 063d 3f86 3a3d 0e7d 743c
00000050: edec 073d 8bbd e9bb 1118 533d c3a6 f6ba
00000060: 2d95 37bc 7454 acbc e88e 0c3d a8ae 95bc
00000070: 13b5 f73c ae24 9ebc 09bd 7bba 0746 513b
00000080: dc94 8abc 59a1 f2bc e0e8 453c c493 d23b
00000090: 1ccb e23c c5e0 5fbc 500b 0cbd fb15 99bb
000000a0: c8a2 4e3d f6eb 163d c76d 1bbd 4096 603d
000000b0: bceb a0ba 05ae fcbb d39f 0abd e870 40bb
000000c0: 6c07 37bc 7d3f a33c
0.034054346 0.03754028 -0.027625125 -0.0046257526 0.030398961 -0.011531911 -0.031264987 0.030678367
-0.034364652 0.038472794 0.023334295 0.048907507 0.0013176488 -0.030451383 -0.014201155 -0.008919041
-0.03666291 0.032918643 0.045538183 0.0149223935 0.033184934 -0.007133191 0.051536623 -0.0018818009
-0.011205 -0.021036364 0.034315974 -0.01827176 0.03023771 -0.0193046 -0.00096030586 0.0031932609
-0.016916685 -0.029617952 0.0120794475 0.0064263064 0.02768474 -0.013664429 -0.034190476 -0.0046718097
0.05044821 0.036846124 -0.03794649 0.05483079 -0.0012277286 -0.0077111744 -0.033843827 -0.0029364172
-0.011171203 0.019927735

fc2.weight f4 [1, 50]
00000000: d1c1 cebd 6b70 123d ab4b cc3c 1dd3 a33d
00000010: 660d b23d ca94 4fbd ad99 fd3c dd42 9c3d
00000020: 6af3 10bd 8d80 853d d311 813d a215 a9bd
00000030: a24b 733d c9ed eebc 2e11 753c 1435 fabd
00000040: 9f98 533d f659 223d b47a 1e3d 480f 28bd
00000050: 58a4 a1bd 6238 05be 2481 2d3d 4b44 683c
00000060: efce 0c3e 2f21 2dbd 67b4 883d db1f 18bd
00000070: 3547 c93d d222 e6bd 85e1 5ebd 9ad9 023e
00000080: 2857 e6bc ef23 ecbc 8f99 9a3d de8f 87bd
00000090: 483b 8d3d 5bff fd3d 0379 d9bd 87aa edbd
000000a0: 3e83 3c3d 85c4 4c3d 345d 1e3b 8f51 093d
000000b0: bf38 69bd e44a c0bc df06 e43c e836 c13d
000000c0: b43d d4bd 783c 9f3d
-0.10095561 0.03575174 0.024938425 0.07999251 0.08693962 -0.050679006 0.030957067 0.07629941
-0.035388388 0.0651866 0.06302228 -0.08256079 0.0593983 -0.02916612 0.014957709 -0.12217155
0.051659223 0.039636575 0.038691238 -0.0410302 -0.07892674 -0.1300979 0.042359486 0.014176439
0.13750814 -0.042267974 0.06675034 -0.037139755 0.09828035 -0.1123711 -0.05441429 0.12778321
-0.028117731 -0.028825728 0.0754882 -0.06619237 0.068960726 0.12402221 -0.10618784 -0.11604791
0.0460236 0.049992103 0.002416444 0.033525046 -0.056938883 -0.02347321 0.027835308 0.09434301
-0.103633314 0.077752054
